output/weights/after2/after2.npz (npz, 37120 bytes, 1 tensors)

w f4 [1, 18, 512]
00000000: 8c44 943f 430c 43be cdbc 3e40 0a96 0dbf
00000010: a97a 683e f95a 573f dfc6 72c0 26e7 3940
00000020: f5f0 8740 a9e5 953d 742f 913f d711 0d3f
00000030: 2ea3 763f 2edc 0fbf 11c1 65bf 172f 76bd
00000040: 58b2 12bf fb59 b83d e98c 343f 242e 963e
00000050: 6119 1cc0 d996 d23f ad91 3540 b5b1 fdbf
00000060: 2581 cf3f 35f5 9c3f 8854 21c0 ff5f b43f
00000070: 7a29 0c3f 5985 e63e 85cf b1bf f1ec 983f
00000080: 473f 2ebf 39ad 7dbf 9217 673b 6f87 70bf
00000090: d8b5 f1be dfec d4bf e00d 66bf b9f4 3e40
000000a0: e439 76bf c26e f53f 49fa e03e e08f 08bf
000000b0: 6d4d b0bf 9725 fcbd efa9 31be 4e23 19bf
000000c0: 28b1 35be 5eff 0440 cc66 44bf 49e4 ce3f
000000d0: 3c43 61be d9f2 cf3c 0ab1 0ec0 1eaa 04bf
000000e0: a448 4dbe de40 00c0 1e49 b2be ce3a d23b
000000f0: e955 b83f a5e9 cabd da80 5b3e 2605 16bf
00000100: ca4e a73f 3714 8a3e 8d78 573f 8f5a 813f
00000110: 5722 ccbf a9b8 8fbf ef89 683d dda3 c33f
00000120: 7916 28c0 34bc 6a3f e8d6 0bbe 0a4f fc3f
00000130: f8c8 e2be 0326 f4be 1001 393f b6ab a13f
00000140: 96a8 993f a405 7b3f 6863 1140 c5d9 04c0
00000150: 1017 493f a610 beba 5fec 0440 8ceb d53d
00000160: 5b47 3bbf f001 f63f 15c6 383f 9402 39be
00000170: 69e5 a9bf 6c2e 18bf 2de1 0440 1000 ebbd
00000180: 9e6d c3bc e8dc 5fbf d937 c03e af02 0c3f
00000190: 12b7 1fbf be5a f13d b4dc f83e 7aaa 0bbd
000001a0: f565 01c0 28e7 56bf 6db1 b3bf 5c9d 883f
000001b0: a0b1 00be 7df4 61bf b469 ae3d 1165 d43f
000001c0: 2eab 8bbf 3a3c e73f f5b3 fb3e cb83 813f
000001d0: b918 453e 2595 473e 38dc 5e3f 0a8f 57bf
000001e0: 6bb2 c93f 03a6 a23e 207b 20c0 4e65 f43f
000001f0: 928c a0bf 0f7a bd3f b25c e53f 2b7d 8c3f
00000200: 9eb9 4a40 d02f 923c a61a a13e 0eda 08bf
00000210: 02d2 213f b9df 1e3e 81e5 033d 05bd 5ebf
00000220: 4eb1 86bf 9278 b33e 1266 b83e 92c2 573e
00000230: 2531 063d e002 84bf 2b9c b23e 3d69 283f
00000240: a5ef 6f3f 2dca c83f 6dbf 4a3f 874d f73e
00000250: 5a1a c63f 80f6 bb3f aeb6 a63f 6eb7 9dbf
00000260: 4575 0d3f 41d4 913f b2ff 69be c888 d9be
00000270: 2bd1 a53b b1de f8be 980c e2be ceec 65bf
00000280: f1fe 47bf 2f4a d03e 88a9 973f f39e 62c0
00000290: c8db 033e 1bc8 903f dc43 babe 5128 f4bf
000002a0: 4969 cc3f cced 753f cb10 5dbf 0ff5 5840
000002b0: ce62 3140 3a22 553e 11cb 09bf 6291 fe3e
000002c0: 80b5 cfbe 98ce 0340 9ce2 adbf f60c de3f
000002d0: 8e0b ecbe 07f0 5dbf b0af 203f f8ac 373f
000002e0: 76cb 9b3f 48ab c6bf 9429 f33f 723e 3740
000002f0: bca2 9a3e 9852 d83f 1fd1 50bd 011c 6dbf
00000300: b8b3 96bf c14b e63f 10ee d2be 0717 a7be
00000310: 6dbd 293f 49d1 f83c bf84 9e3f a969 ac3f
00000320: 8311 99be 76da 993f af57 57bf 6e0d 603f
00000330: e274 36bf 058d 1140 a40f e23f 0c5d 3dbf
00000340: b8b7 b93f 86fe a53d 791e 413f f7e8 66be
00000350: 3ee8 1540 cfcd 6dbf b009 0740 7cd1 80be
00000360: a881 143e 1679 893f 8124 663f 6323 11c0
00000370: 64be 863f c956 c13e eb93 1fbf 6b22 db3f
00000380: b0e3 333f 781c 06c0 03cf a73e 2cdc 333f
00000390: d2e7 483e ba8d 39bf 9e5e 21bf 379e b83f
000003a0: 099b 9abe 892a a0bf a8e0 153f 24c5 b5bf
000003b0: 1498 ee3e 3046 96bf 293c 02bd e3c5 35bf
000003c0: c8a1 0cbf 2a82 f1be e673 9dbe 7123 c43e
000003d0: e8f8 ebbe ea42 473c e555 af3f 70ea d63f
000003e0: 0ca0 23bf 4edd b93e 6a5c 85bf 9b90 a43d
000003f0: 9687 9f3f 1e19 8f3f d4c3 d93e 674c 383f
1.1583419 -0.19047646 2.9802735 -0.55307066 0.22703041 0.8412319 -3.7933881 2.9047332
4.2481637 0.07319195 1.1342607 0.55105346 0.9634274 -0.5619534 -0.8974772 -0.060103502
-0.5730338 0.090015374 0.7052751 0.29332078 -2.439049 1.6452285 2.8370163 -1.9819857
1.6211287 1.2262331 -2.5207844 1.4091796 0.5475079 0.4502361 -1.3891455 1.1947309
-0.68065304 -0.9909244 0.0035261852 -0.93956655 -0.47209048 -1.6634787 -0.8986492 2.9836867
-0.96182084 1.9174426 0.43940952 -0.53344536 -1.3773628 -0.12311857 -0.17349981 -0.59819496
-0.17743361 2.0780864 -0.76719356 1.6163417 -0.21998304 0.025384353 -2.2295556 -0.5182208
-0.20047241 -2.0039592 -0.3482141 0.0064157015 1.4401218 -0.099078454 0.21435872 -0.58601606
1.307092 0.26968548 0.8416832 1.0105761 -1.594798 -1.1228229 0.05677217 1.5284382
-2.6263716 0.91693425 -0.13656199 1.9711621 -0.44293952 -0.4768525 0.72267246 1.2630527
1.2004573 0.9805548 2.2716923 -2.0757916 0.78550816 -0.0014500811 2.076927 0.104453176
-0.73155755 1.9219341 0.7217725 -0.1806739 -1.3273135 -0.59445834 2.0762436 -0.11474621
-0.02385598 -0.8744645 0.37542608 0.54691595 -0.6238872 0.11784886 0.48605883 -0.034098126
-2.021848 -0.83946466 -1.4038521 1.0673022 -0.12567759 -0.88263685 0.08516255 1.6593343
-1.0911615 1.8065255 0.49160734 1.0118345 0.19247712 0.19490488 0.8705478 -0.84202635
1.5757574 0.31767282 -2.507515 1.9093416 -1.2542899 1.4802874 1.7918913 1.0975698
3.1675792 0.017845064 0.31465644 -0.53457725 0.6321107 0.15515031 0.032201294 -0.8700717
-1.0522859 0.35052925 0.36015373 0.21070316 0.03276171 -1.0313377 0.34884772 0.6578558
0.93725044 1.5686699 0.7919834 0.48301336 1.5476792 1.4684601 1.30245 -1.2321603
0.55257064 1.13929 -0.22851446 -0.42487168 0.005060335 -0.486074 -0.44150233 -0.8981446
-0.78123385 0.40681598 1.1848612 -3.5409515 0.12876809 1.1311067 -0.36379898 -1.9074804
1.596963 0.96065974 -0.8635375 3.3899572 2.7716556 0.20813838 -0.5382548 0.49720293
-0.4056816 2.0594845 -1.3584781 1.7347705 -0.46102566 -0.8669438 0.6276808 0.71748304
1.2171466 -1.5521021 1.8997064 2.8631864 0.3020228 1.6900206 -0.050980683 -0.92620856
-1.1773596 1.7991868 -0.41197252 -0.32634756 0.66304666 0.030373232 1.2384261 1.3469745
-0.29896173 1.2019794 -0.8411817 0.8752049 -0.712721 2.2742321 1.7661023 -0.73970103
1.4509192 0.08105187 0.7543712 -0.22549807 2.3423 -0.92892164 2.1099663 -0.25159824
0.14502585 1.0740077 0.8989945 -2.2677848 1.0526853 0.37761524 -0.6233508 1.7119879
0.702693 -2.0954876 0.32775125 0.7025783 0.19619682 -0.7248188 -0.63035 1.4423283
-0.30196407 -1.2512981 0.58545923 -1.4200788 0.466004 -1.174017 -0.031795654 -0.71005076
-0.5493436 -0.4716962 -0.30752486 0.3830829 -0.46088338 0.01216195 1.3698088 1.6790295
-0.6391609 0.36301655 -1.0418828 0.08035394 1.2463253 1.117954 0.42532218 0.7199158
