output/aesthetic_vec/before_after2/aesthetic_w2.npy (npy, 36992 bytes, 1 tensors)

array f4 [18, 512]
0	0xbf700e88	-0.9377217
1	0x3dd60862	0.10450818
2	0x402a032e	2.656444
3	0x3f52b866	0.8231262
4	0xbe92ecdc	-0.28696334
5	0x3fa10872	1.2580702
6	0xc06d215a	-3.7051606
7	0x40755aa9	3.8336585
8	0x40769b44	3.8532267
9	0x40543d4b	3.316241
10	0x3ed4c43a	0.4155596
11	0x3c9e7ac0	0.019345641
12	0x4004620a	2.0684838
13	0xbf379fcd	-0.7172821
14	0x3ed4ec6e	0.41586632
15	0xbecb3f44	-0.39696705
16	0xc018d7ba	-2.388167
17	0xbe3bfb30	-0.18357539
18	0x3ecdf1d8	0.40223575
19	0xbf82619f	-1.0186042
20	0xc029a4cc	-2.6506834
21	0x3eff6044	0.49878132
22	0x3ed6a5a0	0.41923237
23	0xbf00a246	-0.5024761
24	0x3f45ac21	0.7721577
25	0xbedb3a0c	-0.42817724
26	0xbf88e7c1	-1.0695726
27	0x3fce03b9	1.6094886
28	0xbf913c83	-1.1346592
29	0xbe928d0f	-0.28623244
30	0x3f86d1bd	1.0532757
31	0x3ffbf801	1.968506
32	0x3ef7aac6	0.48372477
33	0x3f0446d3	0.5167057
34	0x3f86a86c	1.0520148
35	0x3fa59b5a	1.2938035
36	0xbd0a62a0	-0.033785462
37	0x3e21c6c0	0.15798473
38	0x3dfd7680	0.12376118
39	0x3ff3d9ab	1.9050802
40	0xbd3628f0	-0.044472635
41	0x3f13ed8c	0.5778434
42	0x3f1e30dc	0.61793303
43	0x3e8a2ed6	0.26988858
44	0xc08892db	-4.2679267
45	0xbe62c1be	-0.2214422
46	0x3f075944	0.52870584
47	0x3f91313d	1.1343151
48	0xbf92cb3a	-1.146827
49	0x3fd758f3	1.682402
50	0x3f4f7f72	0.8105384
51	0x3d39e7c0	0.04538703
52	0xbf8f1d35	-1.1180788
53	0x3e8e6295	0.27809587
54	0xc02ca603	-2.6976326
55	0x3dd8d190	0.10586846
56	0xbfbd9e6a	-1.4813969
57	0xbfbf3f18	-1.494113
58	0xbf724838	-0.9464145
59	0x3f4c50af	0.79810613
60	0x3fcf3816	1.6188991
61	0x3f649957	0.8929648
62	0xbf2ee070	-0.68311214
63	0xbdf60f2c	-0.120146126
64	0x3fe61f88	1.7978373
65	0xbef44ecb	-0.47716364
66	0xbcf06080	-0.02934289
67	0x3fc052d7	1.5025281
68	0x3ed0df14	0.40795195
69	0xbf2449ce	-0.64175117
70	0x3eddb5ea	0.43302852
71	0x403feab4	2.9987001
72	0xbfcc83c0	-1.5977707
73	0x3ed9a294	0.4250685
74	0xbfd3c7be	-1.6545331
75	0x3eea4bd0	0.45760965
76	0xbf99e9b2	-1.2024443
77	0xc04a28f5	-3.1587498
78	0x3e78ba70	0.2428987
79	0x3f9e39f5	1.2361437
80	0x3fabb578	1.3414755
81	0x40107b68	2.2575321
82	0x3f1580ba	0.58399546
83	0xc0172209	-2.3614523
84	0x3fbc7025	1.4721724
85	0xbf20d916	-0.62831247
86	0x3fb5e20c	1.4209609
87	0x3f8e7342	1.1128924
88	0x3f0fa95b	0.5611779
89	0xbf5f63fc	-0.8726194
90	0x3e9cb1bf	0.3060436
91	0xbf179a19	-0.5921951
92	0xbf8d43ee	-1.1036355
93	0x3f27274e	0.6529435
94	0xbfc63d92	-1.548754
95	0x3fb33bd5	1.4002634
96	0x3fd4ce4c	1.6625457
97	0xbf9af270	-1.2105236
98	0xbeb93f57	-0.36181137
99	0xbf519c69	-0.8187929
100	0x3f1c7cd8	0.61127996
101	0x3f30e3b2	0.69097435
102	0x3f1aab8f	0.6041803
103	0x3f4413bc	0.7659261
104	0xbfc58d36	-1.5433719
105	0xbff81abc	-1.9383159
106	0xbebe5b4c	-0.3717903
107	0x3fc4bada	1.5369523
108	0x403f0791	2.9848368
109	0xbef9761f	-0.48722932
110	0x3ee7bb65	0.45260158
111	0xbfd017d5	-1.6257273
112	0xbf59ab42	-0.85026944
113	0x4020f236	2.5147834
114	0x4027de71	2.6229517
115	0xbe03d2c0	-0.12873363
116	0x3fa22740	1.2668228
117	0xbf422091	-0.7583094
118	0x3f8911d0	1.0708561
119	0xbf91137b	-1.133407
120	0x3fad711c	1.3550143
121	0x3e8ce469	0.27518013
122	0xc018d95b	-2.3882663
123	0x3f5d9a68	0.8656373
124	0xbf8d80cc	-1.1054931
125	0xbedab484	-0.42715847
126	0x3f01896c	0.50600314
127	0xc02eef48	-2.7333546
128	0x40305c9e	2.755653
129	0x403e9a5e	2.9781718
130	0x3f106693	0.56406516
131	0xbf043a2a	-0.5165125
132	0xbf66b84e	-0.90124977
133	0xbf8791c2	-1.0591357
134	0x3f790b3b	0.9728276
135	0xbfc2ae50	-1.5209446
136	0xbf51fafb	-0.8202359
137	0x3f1498f0	0.58045864
138	0xbf145bc6	-0.57952535
139	0x3f01d687	0.5071797
140	0x3ee537b1	0.44769052
141	0x3fc05ed0	1.5028934
142	0xbcff5b40	-0.031171441
143	0xbfe8ecaa	-1.8197224
144	0x3c8cd6e0	0.017192304
145	0x3faefdd6	1.3671215
146	0x3fcdbcc9	1.6073238
147	0x3dfd1178	0.123568475
148	0xbf764418	-0.9619765
149	0x3f505931	0.81386095
150	0x3ffd03e4	1.9766812
151	0xbf45fbcf	-0.77337354
152	0xbfa30dd8	-1.27386
153	0x3ea427f8	0.32061744
154	0xc00aa16f	-2.1661031
155	0xc0069a9a	-2.1031861
156	0xbfb99519	-1.4498626
157	0xbfc59b24	-1.543797
158	0xbef2b60f	-0.47404525
159	0xbe4e1c84	-0.20128065
160	0xbe42ba64	-0.19016415
161	0xbfa56915	-1.2922693
162	0xbf443f9e	-0.7665957
163	0xbff4e708	-1.9133005
164	0xc0352860	-2.8305893
165	0xbf423422	-0.758608
166	0xbf3b9e7a	-0.7328869
167	0x3edf3484	0.43594754
168	0x3f68c8b1	0.9093123
169	0x3f93a740	1.1535416
170	0xbfcd09d3	-1.6018623
171	0x4027e0b9	2.623091
172	0x3edcc9a8	0.43122602
173	0xbfab028c	-1.3360152
174	0xbff82cf8	-1.9388723
175	0xbfe5ed1e	-1.7962987
176	0xbf824c56	-1.0179546
177	0x3f566718	0.8375106
178	0xbf361a36	-0.71133745
179	0x3fe7771a	1.8083222
180	0xbe340b38	-0.17582405
181	0xc008aa9a	-2.1354127
182	0xc014f796	-2.3276114
183	0xbfa316c1	-1.2741319
184	0x3fefc5a2	1.8732188
185	0xc00167dc	-2.021964
186	0x4003be60	2.0584946
187	0x3fafd3c7	1.3736504
188	0x3ddae586	0.10688309
189	0x3f9a5857	1.2058209
190	0x3fd16dfb	1.6361688
191	0xbf5a675f	-0.8531398
192	0x3e985a18	0.29756236
193	0x4001ed8b	2.0301235
194	0x400110ea	2.0166574
195	0x40356462	2.8342519
196	0x3f107556	0.5642904
197	0x3e0f2ad1	0.13981177
198	0x3f05a4a4	0.52204347
199	0x3eba405c	0.36377227
200	0xbee9455a	-0.45560724
201	0x3e9625f8	0.29325843
202	0xbf4317a5	-0.76207954
203	0x3fac2c52	1.3451025
204	0x3f957812	1.1677268
205	0x3c32bf00	0.010909796
206	0x3facbfec	1.349607
207	0xbfbf797e	-1.4958951
208	0x3dbc5280	0.09195423
209	0xbf3616f9	-0.71128803
210	0x400057c4	2.0053568
211	0x3f3658f6	0.71229494
212	0x401d8a3e	2.4615626
213	0xbf07ab38	-0.52995634
214	0x3f207afa	0.6268765
215	0x3f7fa1c8	0.99856234
216	0xbfd799fa	-1.6843865
217	0xbf4fe770	-0.8121252
218	0xbf4c2363	-0.79741496
219	0xbf84e0b3	-1.0381073
220	0x3f4cb1ea	0.79958975
221	0xbf213b24	-0.62980866
222	0xc02b9e28	-2.681528
223	0x3ff5fa84	1.9217076
224	0x402594f8	2.5872173
225	0xbf867aec	-1.0506263
226	0x3fa68b96	1.3011348
227	0x3fd11012	1.6333029
228	0x4003a986	2.057222
229	0xbee9e859	-0.4568508
230	0xbe229216	-0.1587604
231	0x3fff0faf	1.9926661
232	0xc0180786	-2.3754592
233	0x4032956a	2.7903695
234	0xbea02eee	-0.31285805
235	0xbf9ce814	-1.2258325
236	0x3f2bd98c	0.67128825
237	0xbf99bf12	-1.2011435
238	0xbf3fd01a	-0.7492691
239	0xbf4940f9	-0.78614765
240	0xc023616f	-2.5528219
241	0xbf1caf82	-0.61205304
242	0xbf7ad224	-0.979769
243	0xbe8950cf	-0.26819465
244	0x3fdcfd8c	1.7264876
245	0xbddc0ef9	-0.10745043
246	0x3e904e10	0.28184557
247	0x400a7dd4	2.16393
248	0xbfe1bacf	-1.7635134
249	0xbe83f210	-0.25770617
250	0xbfa90e8a	-1.3207562
251	0xbf1dc3ac	-0.61626697
252	0xbfc66942	-1.5500872
253	0x3fc58c3b	1.543342
254	0x3f1f6e00	0.6227722
255	0xbf25aceb	-0.64716977
