output/weights/before4/before4.npz (npz, 37120 bytes, 1 tensors)

w f4 [1, 18, 512]
00000000: 2a6e 1cbf 8fd1 53be f005 953f bd88 6dc0
00000010: 18d6 9c3d 5607 a83e f7da b4be 9b15 5fbf
00000020: df66 6d3e 5bcd bdbf fcad e8be 181b 10c0
00000030: 353d a4bf ca4f bbbf 01f7 27bf 7745 8f3f
00000040: e85c 3cbf 3e41 883f 1e1c 563f c0e9 98bf
00000050: 3ac6 e6be 4721 c53e f048 9bbe 6e7a 11c0
00000060: a7f3 4fbf 9610 0840 acb9 9abf c366 e3bf
00000070: b725 00bf 070d 953d 1be9 c7bf 3b54 ea3f
00000080: 5af2 30bf 8863 8c3f 6e51 d93f 178f abbf
00000090: cba4 e53e 6365 ffbe ef93 5cbf 4c53 ac3f
000000a0: 97f4 86bf 396c 1f40 b557 4ebe 60ff 913f
000000b0: a289 103f 2b3d 93be e097 3340 fbea 213e
000000c0: f343 783f fce3 a83f bb8f 79be 96d3 ea3e
000000d0: 3ad8 373f 9a99 61bf 8991 c43e ea5a 9dbf
000000e0: 4e98 7bbf 7b1b a43f e988 bcbe d195 933f
000000f0: 1139 c4bf e7b2 ac3e bb7c 9c3e 4243 73bf
00000100: 1aaf 863e 032c 18c0 b7f0 98bf 77dc 0a40
00000110: ce16 34be 844c 333f 1044 39bf 20ee 42bf
00000120: af48 0740 761d 963f 7bda 5140 1309 8c3f
00000130: ea05 c93e b62b af3f 2a75 8cbf e884 6e3e
00000140: 256d 3fbf e672 afbf e3ff 4d3f 3290 8abf
00000150: 0f33 42c0 ebe2 b73f cb42 bf3f b214 84bf
00000160: bd63 5f3f 7480 7b40 13d0 e83f d43f c93f
00000170: ffed a8bf b21d 573f 0ded 0a40 37cd 54c0
00000180: dd5c debf 2a3d 96bf 0a67 903e 5cac 0cc0
00000190: 611c bdbe c34a e73d 1997 2d3e 7ce0 da3d
000001a0: 4ce0 823f 6440 a9bd 4141 f7bf 7805 9b3f
000001b0: c15d d33f 40f1 de3d f06f 00c0 55e9 28bf
000001c0: ebc3 e53e a39d 89bf a8cc 51bf c152 ff3e
000001d0: ca79 01bf d9ac 4c3f c3a8 1ebf 4852 3ebd
000001e0: 4215 763f 0754 3bbf 409d abbf 2dd5 553f
000001f0: f2df 853e b95f 42bf aa09 b33f b41b dc3f
00000200: 0560 763f 168a 08c0 ae5a 39bf 5210 d73d
00000210: decb 86bf c808 9d3f d3c7 23bf a6de 953e
00000220: 15b3 b6bd 903b b73e 821c 0f40 d6ce 14be
00000230: 3bc9 12bf 9717 85bf 4599 bc3d 3f30 5c3f
00000240: 580b 2e3f 1b9a f6be 40fa 3c3f 55a8 66be
00000250: 2761 bd3f 4fb5 ef3f bc72 0240 8eff 19bf
00000260: 2aca 503f 2d59 913f 1e28 9b3f 0839 d2bf
00000270: 6fb6 623f 209d 0e40 7cb9 33bf bec4 abbf
00000280: 63f3 513f 45cd cabd 92b7 333f c166 103f
00000290: 23d5 413f eff5 18c0 5135 49bf d1e9 cb3f
000002a0: 2586 36bf a489 e93e 4eb4 8ebf caa7 c43e
000002b0: fa0e d63e 4d66 53bf 934c efbf ac53 2cbe
000002c0: 4326 ae3d d33e fb3f 3492 fbbe 2530 4b3f
000002d0: 80b0 123f 42e3 0140 1c69 a8bf 5334 0440
000002e0: 47ae 78be 9278 40bf a65b ab3e f7a2 323e
000002f0: d6c1 f73e 40fc babe 9c56 f2bf d266 7f3e
00000300: 224c f63f f433 503e c64f 35bf c155 3cbe
00000310: ffc4 30be 9142 40c0 8b4b b53e 54f4 0c3f
00000320: 6b3b e03c 69ed f13e 6a98 3d40 6981 a53f
00000330: 7351 8cc0 f5d2 e23f 55ad a33e 1ab7 d3bd
00000340: be70 ed3f c286 a53d 609d c5bf b0ce 66be
00000350: 0933 fe3e bc41 e83f cd9c 04bf 231f 9dbf
00000360: 3663 723f 81c8 ef3f af96 1140 e263 c7bf
00000370: 7141 dbbe fae4 c73f 2e00 66bf 045e b13f
00000380: e42f b43d e89f 18c0 9efe 223e e58d c5be
00000390: b608 a2bf 4165 1ac0 d08f 333f 9aeb d13f
000003a0: 952f 2c3f dea9 ee3d 9a60 3c3f 2e28 3bbf
000003b0: e99b 9b3f c277 043f 3c26 823f 2596 883e
000003c0: 7878 793f b19c a2be baec cebf a180 853f
000003d0: 7a36 babe eb7d 36bf b209 9c3f 60e0 27bf
000003e0: 0ac3 46be 357d a13f 0351 3040 63c7 b43e
000003f0: 46e3 3040 0e1c 8b3e f8a6 f13f bb83 0a40
-0.61105597 -0.20685409 1.1642437 -3.7114708 0.07658023 0.32818097 -0.35323307 -0.8714234
0.23183773 -1.4828295 -0.4544524 -2.2516537 -1.2831179 -1.4633725 -0.65611273 1.1193074
-0.73579264 1.064491 0.83636653 -1.1946335 -0.4507311 0.3850195 -0.30329084 -2.2730975
-0.8123116 2.1260123 -1.2087913 -1.7765735 -0.5005755 0.072778754 -1.5618013 1.8306955
-0.691198 1.0967875 1.6977975 -1.3403043 0.4485229 -0.4988204 -0.8616323 1.346292
-1.0543393 2.4909804 -0.20150645 1.1406059 0.5646001 -0.28757605 2.8061447 0.15812294
0.9697868 1.3194575 -0.24371235 0.45864552 0.7181431 -0.88125 0.38392285 -1.229337
-0.98279274 1.2820886 -0.36823204 1.1530095 -1.5329915 0.33730242 0.30563912 -0.950245
0.26305467 -2.3776863 -1.194846 2.169706 -0.17586824 0.7003863 -0.7236948 -0.761446
2.1138113 1.1727741 3.27896 1.0940269 0.39262325 1.3685215 -1.0973256 0.23292887
-0.74775916 -1.3706939 0.8046858 -1.0825255 -3.0343664 1.4366125 1.4942259 -1.0318816
0.87261564 3.9297152 1.8188499 1.5722604 -1.3197631 0.84029686 2.1707184 -3.3250253
-1.737209 -1.1737416 0.28203613 -2.19802 -0.36935714 0.112935565 0.1695217 0.10687348
1.02247 -0.08264235 -1.9316789 1.2111044 1.6512986 0.108858585 -2.0068321 -0.65981036
0.44876036 -1.0751232 -0.81952906 0.49867824 -0.5057646 0.79951245 -0.6197626 -0.04646519
0.96126187 -0.7317509 -1.3407364 0.83528405 0.2614742 -0.7592731 1.3987324 1.7195954
0.96240264 -2.133428 -0.7240399 0.1050116 -1.0530965 1.2268305 -0.6397678 0.2927143
-0.08920876 0.3578763 2.236115 -0.14532027 -0.57338303 -1.0397824 0.09208921 0.8601112
0.6798606 -0.48164448 0.7381935 -0.22525151 1.4795274 1.8727206 2.0382528 -0.6015557
0.8155848 1.1355339 1.2121618 -1.6423655 0.8855962 2.2283401 -0.702049 -1.3419416
0.82012004 -0.09902433 0.7020198 0.5640679 0.75715846 -2.3900106 -0.7859698 1.593073
-0.7129844 0.45612824 -1.1148775 0.38409263 0.418083 -0.82577974 -1.8695244 -0.16828793
0.085033916 1.9628547 -0.49134982 0.7937034 0.5730057 2.0294957 -1.3157077 2.0656936
-0.24285232 -0.75183976 0.3346836 0.17444979 0.48390073 -0.36520576 -1.8932681 0.24941567
1.9241984 0.20332319 -0.7082485 -0.18392088 -0.17262648 -3.004063 0.35409197 0.55060315
0.027372083 0.47251442 2.9624276 1.2930118 -4.3849425 1.7720629 0.3196818 -0.10337658
1.8550031 0.08082344 -1.5438652 -0.22539783 0.49648312 1.814506 -0.5180176 -1.2275127
0.94682634 1.8733064 2.274822 -1.5577357 -0.42823365 1.5616753 -0.89844024 1.3856816
0.08798197 -2.38476 0.15917441 -0.3858482 -1.2658908 -2.41243 0.70141315 1.6400025
0.67260104 0.11653493 0.735849 -0.73108184 1.2156955 0.51745236 1.0167918 0.2667705
0.97449446 -0.3176017 -1.6165993 1.042988 -0.36369687 -0.71285886 1.2190459 -0.65576744
-0.19410339 1.2616335 2.7549446 0.3530837 2.7638717 0.27169842 1.887908 2.1642902
