output/aesthetic_vec/before_after6/aesthetic_w6.npy (npy, 36992 bytes, 1 tensors)

array f4 [18, 512]
-0.027541831 -1.7100766 -1.6099508 -3.0764842 0.74693274 0.541569 -0.8314676 1.5415293
1.9938537 -3.4188712 0.21768612 -1.1012115 2.613855 -0.2033055 -3.0790968 -0.67226255
-1.6842177 -0.6116975 -1.0232496 -3.0478854 0.36524636 2.260232 -0.77334404 -0.87162817
-1.5330877 1.8955086 1.4117746 0.4812278 -1.0315541 0.8037121 -0.12239146 2.8807912
0.3656956 -0.22948572 -1.6629388 -1.2651492 -0.7498297 -4.054265 1.977804 2.5021927
0.25120974 1.606039 -2.9653473 -1.6935375 1.62314 1.0120748 -1.7258942 1.7105511
0.564362 -0.31961894 2.3374925 -0.4524663 2.2596567 0.3271818 -1.6896087 -4.572809
0.13469577 2.62706 -1.5482867 0.45235735 -0.07192457 1.7530746 2.0266523 0.8685014
3.3116038 0.06275451 0.2692759 2.2233899 1.296386 0.031166233 -2.098395 0.026497506
-3.0171742 2.2237482 2.9813938 -2.811605 -0.8373871 0.78034043 -1.5091919 -0.79317725
0.21410942 1.3443633 -1.852663 -0.44710195 -0.63131243 -2.4234066 1.5034649 -1.5999867
-1.953686 2.655601 -0.32355666 1.2789016 -1.8060424 -2.5960407 -2.3642254 0.9387262
1.7332101 1.5427678 -1.4683468 -1.1431009 -1.1573248 -0.7933325 0.6084415 -0.16962361
0.567006 -1.6368389 1.4409698 0.9058731 0.30511463 -0.97395 -1.5440747 1.8572788
-1.3351278 1.2889051 -0.8159378 -3.4534988 -1.674481 3.3082485 1.7784084 -2.154564
1.3557444 0.87766993 -0.7103857 2.1612775 -1.9389226 1.5431744 -1.0680085 2.6065812
0.042524815 -0.82231605 0.18758105 1.4410678 -0.5753306 -1.7200754 -0.8049942 0.19953209
1.5190063 0.68631965 1.0789313 0.9989554 1.6293435 -1.0615106 0.20380819 1.2357476
1.8040557 -1.668082 0.34634462 -1.4781239 -1.5180875 0.6325264 -1.2741008 0.6289483
-0.9834563 -3.0560853 -1.4803725 2.7549448 0.37606755 -2.6107526 0.17572343 0.07551402
-1.9984025 0.8447132 2.8785005 -1.4399903 0.717456 -0.6062491 2.846382 1.4232031
-0.06084296 -0.79867375 -0.9373442 -3.1177878 0.9817692 -0.78853333 -2.6320384 0.13626932
-0.9113395 1.2847767 1.4041543 1.178806 -0.9979318 1.170846 -2.1380787 2.4362016
-2.338541 1.1539592 -1.2528005 1.7715302 -0.4988641 3.3994346 -1.9799056 2.2238896
1.0715482 -1.9088762 -3.0204773 -1.3324637 -0.3667403 2.9545007 0.23051831 0.8098352
-1.2424519 0.23391795 1.4740231 0.31804526 -0.7133126 -1.6425941 2.9114008 -0.6031804
0.12743795 0.15569466 0.60929626 -2.2048192 0.081129074 -0.25762153 -0.5954647 2.3390083
1.9022493 4.1958723 0.909197 1.3716049 -2.41689 -1.9144793 -0.9007613 2.486709
2.3917913 -1.8774644 -1.7559639 1.4519765 -1.0311725 -2.9163465 -3.619565 -3.275813
-2.4673812 0.9831883 0.7260002 -0.7892537 2.1779904 -4.1828427 1.4376731 -1.5841758
-2.9716554 1.205281 0.24267074 0.5305549 1.4106598 2.378248 0.21891677 -2.1566303
-1.930596 0.0547013 1.6367896 -1.2785459 1.5538663 0.4258108 1.0319896 -0.5092923
00000000: 689f e1bc cae3 dabf de12 cebf 1ee5 44c0
00000010: fc36 3f3f 44a4 0a3f 10db 54bf d550 c53f
00000020: 9936 ff3f c9ce 5ac0 1ce9 5e3e 80f4 8cbf
00000030: 6649 2740 512f 50be ec0f 45c0 6619 2cbf
00000040: 7294 d7bf 3598 1cbf d8f9 82bf 8e10 43c0
00000050: 9201 bb3e a4a7 1040 e0f9 45bf 0623 5fbf
00000060: 383c c4bf 07a0 f23f 08b5 b43f 7d63 f63e
00000070: f709 84bf 14c0 4d3f 60a8 fabd e25e 3840
00000080: 743c bb3e 4efe 6abe 2edb d4bf 69f0 a1bf
00000090: d7f4 3fbf 8abc 81c0 ae28 fd3f ed23 2040
000000a0: 909e 803e b092 cd3f 40c8 3dc0 d6c5 d8bf
000000b0: 0dc3 cf3f ab8b 813f 1aea dcbf 57f3 da3f
000000c0: 077a 103f 18a5 a3be 7a99 1540 aaa9 e7be
000000d0: 379e 1040 5f84 a73e 1945 d8bf 7454 92c0
000000e0: b0ed 093e c021 2840 422e c6bf 629b e73e
000000f0: 304d 93bd c064 e03f acb4 0140 1c56 5e3f
00000100: 51f1 5340 7085 803d 88de 893e 054c 0e40
00000110: faef a53f 5450 ff3c 1b4c 06c0 4c11 d93c
00000120: 6219 41c0 e451 0e40 28cf 3e40 56f1 33c0
00000130: 005f 56bf 64c4 473f 332d c1bf aa0d 4bbf
00000140: 803f 5b3e 1914 ac3f 1024 edbf 8cea e4be
00000150: b19d 21bf 1819 1bc0 8a71 c03f 5dcc ccbf
00000160: 6212 fabf 5ef5 2940 38a9 a5be 0cb3 a33f
00000170: 662c e7bf 8825 26c0 784f 17c0 5c50 703f
00000180: d4d9 dd3f 6a79 c53f caf2 bbbf 2151 92bf
00000190: 3823 94bf d717 4bbf d2c2 1b3f d0b1 2dbe
000001a0: 4e27 113f f083 d1bf b371 b83f 4de7 673f
000001b0: fc37 9c3e ca54 79bf 3da4 c5bf 50bb ed3f
000001c0: 78e5 aabf d8fa a43f 4de1 50bf 2006 5dc0
000001d0: 6555 d6bf 58ba 5340 e3a2 e33f 60e4 09c0
000001e0: 0889 ad3f faae 603f d6db 35bf 5f52 0a40
000001f0: 9e2e f8bf bd86 c53f 81b4 88bf 3ad2 2640
00000200: 802e 2e3d 4e83 52bf 3f15 403e e974 b83f
00000210: de48 13bf 6e2b dcbf 1a14 4ebf 2452 4c3e
00000220: cc6e c23f a5b2 2f3f 6c1a 8a3f 8bbb 7f3f
00000230: 548e d03f 94df 87bf 18b3 503e fa2c 9e3f
00000240: 4ceb e63f b683 d5bf 1554 b13e 2a33 bdbf
00000250: b150 c2bf 40ed 213f bc15 a3bf c102 213f
00000260: cbc3 7bbf e796 43c0 d97c bdbf 0451 3040
00000270: ed8b c03e 9216 27c0 d8f0 333e 18a7 9a3d
00000280: a7cb ffbf 203f 583f 5a39 3840 9a51 b8bf
00000290: 32ab 373f 2433 1bbf 1f2b 3640 852b b63f
000002a0: 7836 79bd e275 4cbf caf5 6fbf d689 47c0
000002b0: 3a55 7b3f 52dd 49bf 5173 28c0 2f8a 0b3e
000002c0: 8c4d 69bf 9073 a43f 54bb b33f 1de3 963f
000002d0: 7578 7fbf 48de 953f 48d6 08c0 baea 1b40
000002e0: a8aa 15c0 efb4 933f c45b a0bf 80c1 e23f
000002f0: 1e6b ffbe 5690 5940 8c6d fdbf 3554 0e40
00000300: 7e28 893f 0e56 f4bf 804f 41c0 2c8e aabf
00000310: 62c5 bbbe 8a16 3d40 fe0c 6c3e 5c51 4f3f
00000320: aa08 9fbf 3088 6f3e caac bc3f d4d6 a23e
00000330: a89b 36bf 8640 d2bf 6454 3a40 086a 1abf
00000340: 187f 023e 6c6e 1f3e d7fa 1b3f c21b 0dc0
00000350: 0027 a63d f8e6 83be 6070 18bf 50b2 1540
00000360: e87c f33f 9644 8640 22c1 683f c090 af3f
00000370: 53ae 1ac0 a80d f5bf 4b98 66bf 3e26 1f40
00000380: 1c13 1940 c150 f0bf 6dc3 e0bf 5eda b93f
00000390: 76fd 83bf 6ca5 3ac0 f4a6 67c0 eca6 51c0
000003a0: 93e9 1dc0 3ab2 7b3f 26db 393f 880c 4abf
000003b0: 3264 0b40 d9d9 85c0 ac05 b83f 46c6 cabf
000003c0: 9a2f 3ec0 a646 9a3f ae7e 783e 72d2 073f
000003d0: 8090 b43f 3735 1840 b82b 603e 3b06 0ac0
000003e0: c51d f7bf 780e 603d 5282 d13f 64a7 a3bf
000003f0: 17e5 c63f e003 da3e 3c18 843f fb60 02bf
