output/aesthetic_vec/before_after3/aesthetic_w3.npy (npy, 36992 bytes, 1 tensors)

array f4 [18, 512]
0	0xbf352c30	-0.7077055
1	0x3f29e7f7	0.66369575
2	0xbf135830	-0.5755644
3	0x3eb5f00e	0.3553471
4	0x3f04f143	0.51930636
5	0x3f614434	0.87994695
6	0x3fab27ee	1.337156
7	0xbee52a53	-0.44758853
8	0x40167000	2.350586
9	0xc038da72	-2.8883328
10	0x3ff7545e	1.9322622
11	0x3f24b79b	0.6434266
12	0x3ee6b94c	0.45063245
13	0xbf0e5d0d	-0.55610734
14	0xbef22e6e	-0.47301048
15	0xc014265b	-2.314841
16	0x3e73c17c	0.23804277
17	0x3f896356	1.073344
18	0xbd3c8823	-0.046028268
19	0xbfe5eb64	-1.796246
20	0x3feeccf4	1.8656297
21	0x3fd17a78	1.63655
22	0x4008bf74	2.1366854
23	0xc002a7a4	-2.041482
24	0xbfa97bd7	-1.3240918
25	0x3fcd54b7	1.6041478
26	0x3f88ec76	1.0697162
27	0x4060aac2	3.5104222
28	0x402f4686	2.7386794
29	0x3f60df86	0.8784107
30	0xbdf83ca8	-0.12120944
31	0x3fa92e19	1.3217193
32	0xc00cef3f	-2.2021024
33	0x3f1c84a2	0.6113988
34	0xbfe7216e	-1.8057077
35	0x4035abb4	2.838605
36	0xbf2c723b	-0.673618
37	0x3b4bb000	0.0031080246
38	0xc04759a0	-3.1148453
39	0xbfff2bb4	-1.9935212
40	0xbf993dcc	-1.1971984
41	0xbff70721	-1.929905
42	0x3f5ff1c7	0.874783
43	0xbfeb897e	-1.8401334
44	0x3fc4d8f2	1.5378706
45	0x3ee72c7b	0.45151123
46	0x3f3c245f	0.73493
47	0xbfaed0d8	-1.3657484
48	0x3f78d241	0.9719582
49	0xbf7c34ae	-0.9851788
50	0x4025a93c	2.5884542
51	0xc0331be1	-2.7985766
52	0xc00bef09	-2.1864645
53	0xc03af9d6	-2.9214988
54	0xbf2a490c	-0.6651771
55	0x3fe502b1	1.7891446
56	0x3f29febc	0.6640432
57	0xbf3762a7	-0.71634907
58	0x3ea6fd94	0.3261534
59	0x4020e0b6	2.5137153
60	0x3df529a8	0.11970836
61	0x3f9a8b56	1.2073772
62	0xbf68723d	-0.90799314
63	0xbe9d09a2	-0.30671412
64	0xbffe3aca	-1.9861691
65	0x3fa2f48a	1.2730877
66	0x400f0394	2.2345934
67	0x3fc5d23e	1.5454786
68	0x3f76659c	0.96248794
69	0xbeb47f93	-0.3525358
70	0x3ec144c6	0.37747782
71	0xc0035072	-2.051785
72	0x3fe1eace	1.7649782
73	0xbf940b01	-1.1565858
74	0x3e7cee28	0.24700224
75	0xc02712e4	-2.610528
76	0x3f3ed2cb	0.74540395
77	0xbeb8dcca	-0.3610595
78	0xbf981e01	-1.1884156
79	0x3fa9156a	1.320966
80	0x3fab817a	1.3398888
81	0x3fbf2c21	1.4935342
82	0xbe3dfcfe	-0.1855354
83	0xc03ae4ca	-2.9202142
84	0x40bd74e9	5.9205213
85	0xbe8e9801	-0.27850345
86	0x3ef3ff76	0.4765584
87	0x4010211e	2.2520213
88	0x4020f20c	2.5147734
89	0x3fa6df53	1.3036903
90	0x3f990579	1.1954795
91	0xbd9d138e	-0.076697454
92	0xbfa9ca45	-1.3264853
93	0x3f601ab7	0.87540764
94	0xbfa76218	-1.3076811
95	0x3d472300	0.048617363
96	0x400ad61e	2.1693187
97	0xbff829ac	-1.9387717
98	0xbf9b7ef9	-1.2148124
99	0x3ee0af25	0.43883625
100	0x40127203	2.2882087
101	0x3f47c346	0.7803234
102	0x3f8a27ea	1.0793431
103	0xbfb30422	-1.3985636
104	0xbf54c487	-0.83112377
105	0xc04b8d1f	-3.1804883
106	0x3e86ba78	0.2631414
107	0x3f6d4706	0.926865
108	0xbf6c578b	-0.9232108
109	0xbf4be8d0	-0.7965212
110	0x3f9fa247	1.2471398
111	0xbfd21b94	-1.6414666
112	0xbed22f47	-0.41051695
113	0xbb822700	-0.0039719343
114	0xbf078d0f	-0.52949613
115	0x3f1bfc04	0.6093142
116	0xc03c5564	-2.9427118
117	0x3fb2d661	1.3971673
118	0x3f0365ac	0.51327014
119	0xbf538b40	-0.82634354
120	0x3f255bfa	0.6459347
121	0xbee124c0	-0.4397335
122	0xbde74c10	-0.11293805
123	0xbe2f2600	-0.1710434
124	0x3db142c0	0.0865531
125	0x3f1061e8	0.56399393
126	0x3f345878	0.7044749
127	0xbebc17ec	-0.36737
128	0x40885ce1	4.2613378
129	0xbde474a0	-0.11155057
130	0xbdcdb950	-0.10045111
131	0x3f0a8e6e	0.5412358
132	0x40337a18	2.804327
133	0xc0065070	-2.0986595
134	0xc0801de7	-4.00365
135	0xc03aefaa	-2.920878
136	0x40264c3c	2.598403
137	0x3eb5b330	0.35488272
138	0x3e47c0fc	0.19507211
139	0xc0180b51	-2.3756907
140	0x3fe54e6f	1.7914561
141	0xbfe6093e	-1.797157
142	0xbfb0af11	-1.3803426
143	0xbeff64fe	-0.49881738
144	0x40237609	2.5540793
145	0x3eb268f4	0.34845698
146	0x3f3463d4	0.70464826
147	0x3e8b8a02	0.2725373
148	0x3f0069ae	0.50161254
149	0x3fb169a8	1.3860369
150	0xbef4b52d	-0.47794476
151	0xbfe12f66	-1.759259
152	0x40086852	2.1313672
153	0x400739f0	2.1129112
154	0xbee6d09a	-0.45081025
155	0x3e01ac00	0.12663269
156	0xbf7b6d0a	-0.98213255
157	0xc00bc3c6	-2.183824
158	0xbf51f241	-0.82010275
159	0x3e5a2ec4	0.21306902
160	0x3fb533d0	1.4156437
161	0xbfc657a3	-1.5495495
162	0x408d7018	4.4199333
163	0x40303196	2.7530265
164	0x3d89b790	0.06724465
165	0x3ee81711	0.45330098
166	0x40629570	3.540371
167	0x3e7bb040	0.24578953
168	0x3f158070	0.58399105
169	0x3f499308	0.78739977
170	0x3ed94616	0.42436284
171	0x3fef12d4	1.8677621
172	0x40126c3b	2.2878559
173	0xbfbac4cb	-1.4591306
174	0xbe4cfd18	-0.20018423
175	0x4035f1ea	2.8428903
176	0x3fe9ab92	1.8255484
177	0x3ff12430	1.8839169
178	0xbfab076e	-1.3361642
179	0xbec32b3c	-0.38118923
180	0xbfaae5f6	-1.3351429
181	0xc0099ca6	-2.150186
182	0x3f7b537a	0.9817425
183	0xbb9497c0	-0.0045346916
184	0x407b9317	3.9308527
185	0x3f2caa32	0.674472
186	0x3fafc3ae	1.3731592
187	0xbf0e71b9	-0.55642277
188	0x404ed4c5	3.2317364
189	0x3f99a6fb	1.2004083
190	0xc0862cc0	-4.1929626
191	0xbff8895a	-1.9416916
192	0x3f999293	1.1997856
193	0x3e8fed77	0.2811086
194	0x3f09801c	0.53711104
195	0x3ed18f20	0.40929508
196	0xc00d0ecc	-2.2040281
197	0xbfde5586	-1.736985
198	0x400535fc	2.08142
199	0xbfbcf5cc	-1.4762511
200	0xbe09da42	-0.13462165
201	0x402c3baf	2.6911428
202	0x3f079222	0.52957356
203	0xbf5b4196	-0.8564695
204	0xbfb7d31f	-1.4361304
205	0xbf4e2b90	-0.8053522
206	0xbee9253a	-0.45536214
207	0xbeb7f931	-0.35932305
208	0xbe6265ac	-0.22109097
209	0xc07cba70	-3.9488792
210	0xbf440fe0	-0.76586723
211	0xbf34aab4	-0.7057297
212	0xc02a55c0	-2.6614838
213	0xbd6e8560	-0.058232665
214	0xbf491a86	-0.78556097
215	0xbf8fab2b	-1.1224111
216	0xc014f3fe	-2.327392
217	0x3f85e1b6	1.0459507
218	0x3fa5d370	1.2955151
219	0x401eb213	2.4796188
220	0x3f6640d8	0.89942694
221	0xbf313c92	-0.6923305
222	0x3fbf3830	1.4939022
223	0xc0164748	-2.3481007
224	0x3fd2664c	1.6437469
225	0xbf360eb6	-0.711162
226	0xbd081daa	-0.033231415
227	0x3fa8c916	1.3186367
228	0xbfe03c92	-1.7518485
229	0x3fd594cc	1.6686034
230	0xc0211728	-2.5170383
231	0x3f617122	0.8806325
232	0x3fe738a7	1.8064164
233	0xbf14b0ad	-0.58082086
234	0xbf9561df	-1.1670493
235	0x3f61d14b	0.8820998
236	0x3f15eea5	0.5856727
237	0x400515f4	2.079465
238	0xbea290f8	-0.31751227
239	0x3f9269c2	1.1438525
240	0x3fbc63ac	1.4717917
241	0xbf56ade7	-0.83859104
242	0xc0340d32	-2.8133054
243	0x3fa48632	1.2853453
244	0x3f17a9fb	0.59243745
245	0xbae36800	-0.001734972
246	0x3f3346d9	0.7002998
247	0x40000017	2.0000055
248	0x3e8fd976	0.28095597
249	0xbe205218	-0.15656316
250	0x404e3c98	3.2224483
251	0x3e36b8f0	0.17843986
252	0x3fa7fb13	1.3123497
253	0xbed81118	-0.42200541
254	0xc02bd134	-2.6846437
255	0xbfa9f55a	-1.3278
