output/weights/before5/before5.npz (npz, 37120 bytes, 1 tensors)

w f4 [1, 18, 512]
2.01762 -2.148608 -1.3236785 1.4632947 -2.8169632 -1.3465267 0.32950637 -0.34322086
2.8108723 -2.0153055 -0.62799096 -2.3793695 0.81029993 -1.888426 0.47134537 1.3620914
0.2935249 -0.4905486 2.3834808 2.370275 -0.75808054 0.9639863 1.3204453 -1.0063087
-0.74017894 -2.1442852 -0.30031773 -1.2951894 -1.0068332 -0.5232806 -0.03030718 -1.3491117
0.33671078 -1.5219805 4.4196253 0.87115264 0.24142489 -0.8354718 -3.4218884 1.4154197
-0.7078911 1.3623334 -0.21775724 1.2005024 1.5620711 -0.6079091 2.2647955 -1.4708622
-2.0984943 -0.020262199 -0.5126384 -0.9098908 0.7305331 -1.0154098 -2.3912034 0.8881115
-1.0270743 -1.8373171 -0.45011154 -4.7198143 2.0647647 -0.41818562 -0.6336882 1.4733928
0.97247785 0.003071951 2.2886026 -1.203693 -4.156059 -0.00968636 -2.0375113 0.2566959
-0.93220824 -0.21662553 -0.7943822 3.011052 1.6804686 -0.55783784 -2.6486468 0.78770524
0.90078634 -3.493977 -0.33855897 0.36818084 1.2737352 1.7597368 -0.03426003 0.5199031
-0.26205757 0.38779336 1.420595 0.11290676 0.95642775 2.1023595 3.7418523 0.7076297
0.6573604 0.21371938 -0.47804147 -0.991189 1.0332205 0.4797323 2.0728645 0.12342648
-0.6174661 -2.8024757 -0.38515636 1.1881249 0.0117709115 1.7893127 -0.27591178 1.4724269
1.2318528 -1.0953106 -1.6535748 0.5142428 -0.11660068 1.2412847 3.5526683 -0.9996341
0.6406504 1.3749071 0.1597463 1.3241276 1.1199187 1.4121945 2.2407498 2.114582
0.8323063 -2.7914267 -0.80887 0.11904312 0.2716086 -2.3286269 -0.20558602 0.925891
-0.013871519 0.24657536 -1.4754121 0.20856613 -1.6831414 -1.5404251 -0.77339035 1.7841344
1.7376332 -1.0702561 -0.15880273 0.033345006 1.9762895 -0.27950212 -0.67366457 -0.3282128
1.2333144 -0.26550856 0.62435603 -1.4207196 -0.31677318 0.8737057 -0.81830424 -1.518231
-1.0274394 0.21371241 0.8392554 0.6095524 1.3709624 2.282387 -0.50185704 0.069006905
0.7904335 1.6055661 -0.5737803 2.174072 1.7323653 0.1014862 -2.1188328 0.80462825
2.077636 2.8321102 -1.485573 -0.3077451 2.2244284 -1.2041109 -2.0399146 -1.1965765
-1.2711804 0.6803079 1.9596258 0.8883391 0.44759944 -3.3156378 0.098744616 -3.0491412
-0.5663851 -1.4386883 0.34046873 -2.4089522 1.045232 0.4293855 1.2737514 -1.4643047
-0.91285956 0.39430562 1.213119 -1.4346759 -0.004415419 -0.77857524 -2.0828109 -0.53229064
0.82093 0.3764916 1.398076 -0.47669137 0.7312094 -3.6615112 -0.8951651 -2.8265345
-2.4935718 2.2476504 0.08536748 -2.1622777 1.361954 -0.33909532 0.8809705 -0.18083888
-0.72196263 -0.8078679 -0.74383825 1.5853474 -0.055796508 -0.8006765 1.8043075 1.3468224
0.64867955 1.3954191 1.1259922 1.5525306 0.15966296 0.92453456 1.1144197 1.2874868
1.8441187 -0.16208282 -1.2950447 0.83317345 1.0136749 -1.6202383 0.038525794 2.5970466
1.2904367 0.5897758 -0.82574564 -0.111606084 5.592806 1.4434824 -0.80300033 2.6730187
00000000: b020 0140 cb82 09c0 4c6e a9bf 3e4d bb3f
00000010: 2049 34c0 fd5a acbf 0fb5 a83e a5ba afbe
00000020: 55e5 3340 c4fa 00c0 04c4 20bf 9747 18c0
00000030: d16f 4f3f f1b7 f1bf 2e54 f13e 0359 ae3f
00000040: e548 963e 3029 fbbe f38a 1840 96b2 1740
00000050: 9111 42bf cec7 763f 5a04 a93f b9ce 80bf
00000060: 5e7c 3dbf f83b 09c0 3fc3 99be c4c8 a5bf
00000070: e9df 80bf b8f5 05bf c346 f8bc b1af acbf
00000080: 5b65 ac3e 42d0 c2bf 926d 8d40 dc03 5f3f
00000090: 1638 773e 7be1 55bf 3800 5bc0 792c b53f
000000a0: 5a38 35bf f160 ae3f c1fb 5ebe 10aa 993f
000000b0: f2f1 c73f ee9f 1bbf 69f2 1040 3645 bcbf
000000c0: bb4d 06c0 e9fc a5bc 453c 03bf 9aee 68bf
000000d0: 3804 3b3f f3f8 81bf 7a09 19c0 465b 633f
000000e0: 2c77 83bf 352d ebbf 0575 e6be b808 97c0
000000f0: 1b25 0440 6d1c d6be 6439 22bf 2398 bc3f
00000100: 4ff4 783f c952 493b 7778 1240 9d12 9abf
00000110: 6ffe 84c0 8ab3 1ebc 9666 02c0 a56d 833e
00000120: 33a5 6ebf 15d3 5dbe a25c 4bbf 13b5 4040
00000130: 9819 d73f 76ce 0ebf 6e83 29c0 0da7 493f
00000140: ef99 663f 529d 5fc0 9a57 adbe 3382 bc3e
00000150: c109 a33f 0e3f e13f 3f54 0cbd 5f18 053f
00000160: 692c 86be da8c c63e 0fd6 b53f a93b e73d
00000170: 73d8 743f 0f8d 0640 827a 6f40 3827 353f
00000180: c548 283f 41d9 5a3e dac1 f4be 90be 7dbf
00000190: 9240 843f 799f f53e d0a9 0440 06c7 fc3d
000001a0: 4212 1ebf c35b 33c0 3733 c5be 7a14 983f
000001b0: c8da 403c 3308 e53f 4f44 8dbe 7c78 bc3f
000001c0: 5aad 9d3f 2333 8cbf 57a8 d3bf 6ba5 033f
000001d0: 56cc eebd 6be2 9e3f eb5e 6340 05e8 7fbf
000001e0: aa01 243f f5fc af3f 8994 233e 037d a93f
000001f0: 7f59 8f3f cac2 b43f 7268 0f40 5055 0740
00000200: 0712 553f bca6 32c0 1b12 4fbf e1cc f33d
00000210: 4810 8b3e 3908 15c0 2485 52be 3107 6d3f
00000220: 5e45 63bc 407e 7c3e 4eda bcbf 5c92 553e
00000230: 2d71 d7bf a62c c5bf e9fc 45bf 845e e43f
00000240: c46a de3f 27fe 88bf 2f9d 22be c694 083d
00000250: 0ef7 fc3f e71a 8fbe 4875 2cbf 820b a8be
00000260: 3fdd 9d3f bdf0 87be ccd5 1f3f 24da b5bf
00000270: 1830 a2be 2dab 5f3f 637c 51bf 6555 c2bf
00000280: 2283 83bf 6dd7 5a3e 71d9 563f a00b 1c3f
00000290: b27b af3f a112 1240 b479 00bf 7e53 8d3d
000002a0: da59 4a3f 3183 cd3f 44e3 12bf ff23 0b40
000002b0: 25be dd3f ffd7 cf3d f59a 07c0 1efc 4d3f
000002c0: fdf7 0440 4b41 3540 4227 bebf c490 9dbe
000002d0: 095d 0e40 4e20 9abf f68d 02c0 6b29 99bf
000002e0: 0ab6 a2bf a928 2e3f 05d5 fa3f 316a 633f
000002f0: c12b e53e 6933 54c0 9e3a ca3d 2125 43c0
00000300: 9dfe 10bf f026 b8bf eb51 ae3e 462c 1ac0
00000310: 2aca 853f 6bd8 db3e 490a a33f 566e bbbf
00000320: 2ab1 69bf 6de2 c93e 7c47 9b3f 76a3 b7bf
00000330: 38af 90bb b550 47bf c64c 05c0 3344 08bf
00000340: 7828 523f 82c3 c03e 28f4 b23f e410 f4be
00000350: 8a30 3b3f 3356 6ac0 8a29 65bf f1e5 34c0
00000360: ae96 1fc0 81d9 0f40 25d5 ae3d c262 0ac0
00000370: 8254 ae3f e79d adbe 4887 613f d42d 39be
00000380: 8bd2 38bf 6ed0 4ebf 2f6c 3ebf aaec ca3f
00000390: e18a 64bd 23f9 4cbf 8cf3 e63f ad64 ac3f
000003a0: dd0f 263f 189d b23f 8320 903f 53b9 c63f
000003b0: b07e 233e 4cae 6c3f 4ea5 8e3f 5ecc a43f
000003c0: 150c ec3f 0af9 25be 06c4 a5bf db4a 553f
000003d0: 19c0 813f f863 cfbf 39cd 1d3d 0336 2640
000003e0: 082d a53f 8cfb 163f 1164 53bf bb91 e4bd
000003f0: 44f8 b240 08c4 b83f 6e91 4dbf bd12 2b40
