output/weights/after5/after5.npz (npz, 37120 bytes, 1 tensors)

w f4 [1, 18, 512]
000000 21 f7 a1 3a 7e 3f 23 3f 0a e6 51 3f d1 38 76 bf
       0.0012356975 0.63768756 0.81991637 -0.96180445
000010 87 ac 58 bc 1c 4b f5 3f 50 66 25 c0 c8 53 98 bf
       -0.0132247275 1.9163547 -2.5843697 -1.1900568
000020 71 e8 55 40 fd 54 6c bc 53 63 1b 40 53 c1 8b 3b
       3.342312 -0.01442456 2.4279373 0.0042649894
000030 72 6f 68 3d 73 1a dc bf af d0 90 bf eb 5a 49 bf
       0.056746908 -1.7195572 -1.1313685 -0.78654355
000040 89 fa af bf ef 2a 15 3f 69 70 64 bd 06 ae 0b c0
       -1.3748332 0.58268636 -0.055771265 -2.1824965
000050 f7 b7 2f be c8 43 a1 3e 5c d8 98 bf ac 95 06 c0
       -0.17160021 0.31497025 -1.1941028 -2.1028852
000060 04 40 e5 3f a9 56 26 40 5e fd a1 3d 90 72 9d 3e
       1.7910161 2.5990393 0.07909654 0.30751467
000070 bd aa 8a 3f e1 a1 70 3e 64 bd 93 bf b6 41 24 40
       1.0833355 0.23499252 -1.1542172 2.5665107
000080 ae 3e 0f bf 09 fe 9c bf d4 2a c9 be 86 0c 4b bf
       -0.55955017 -1.2265025 -0.39290488 -0.79315984
000090 b4 b6 b1 3f 16 9b 66 bf 9c c1 64 3f 24 81 9a 3f
       1.3883882 -0.9008039 0.89357924 1.207066
0000a0 36 35 02 3d 09 7c fa 3f 21 1b 8a 3f 02 f1 89 3f
       0.031789027 1.9569103 1.0789529 1.0776675
0000b0 b5 0f c4 be b2 57 fd bf 8b 9f 35 bf ac 2e c8 bd
       -0.38293234 -1.9792387 -0.7094657 -0.09774527
0000c0 f0 79 25 3f 44 50 09 40 48 58 17 3f 3f f7 fb 3e
       0.64639187 2.145524 0.5911908 0.4921207
0000d0 e5 9d 99 bf db 75 c8 bf 21 e4 71 bf b0 d4 85 3d
       -1.200131 -1.5660967 -0.9448872 0.065347075
0000e0 bf 72 c5 3f c9 f4 9e bf b1 3a 54 3d f3 2e 8e 3f
       1.5425643 -1.2418453 0.051813785 1.1108078
0000f0 1d bf d7 3e 52 08 61 bd 84 7c 03 c0 50 7c bc 3e
       0.42137995 -0.054939575 -2.0544748 0.36813593
000100 c1 ec b5 3f a2 4e c8 3e 65 b8 10 3f 68 9c d1 3f
       1.4212877 0.39122492 0.56531364 1.6375856
000110 9c 18 63 3d f7 7c 55 bf 24 70 95 bf fa 6b 54 3f
       0.05544339 -0.83393806 -1.1674848 0.8297726
000120 62 8d e3 bf 65 80 e4 bb bf c2 b1 3f 7f 5c b0 bf
       -1.7777522 -0.0069733136 1.3887557 -1.3778228
000130 64 af f9 be f5 18 6e 3f 79 c9 a4 3e f5 88 61 bd
       -0.48766625 0.9300683 0.3218496 -0.055062253
000140 02 96 24 3f 90 d8 78 3f 09 90 be 3f af 97 f9 bf
       0.64291394 0.9720545 1.4887706 -1.9499415
000150 e8 83 0b bf 4a aa 04 3e 86 61 3e 3f 11 e1 b5 be
       -0.5449815 0.12955585 0.7436756 -0.35523275
000160 d5 93 74 be 7e 9e 78 3f e7 e8 4a 3f 84 64 04 bf
       -0.23884518 0.9711684 0.7926163 -0.51715875
000170 79 7f bf bf 53 8c 82 3f e2 25 a9 3f dc 18 6d bf
       -1.4960777 1.0199074 1.3214686 -0.9261606
000180 ee 9f 9b 3e 68 8a 91 3f 6b 41 27 3f b3 38 05 3f
       0.30395454 1.1370363 0.65334195 0.5203964
000190 f4 3d 6c be 61 73 aa 3d b4 f8 c0 3e f9 e4 aa bf
       -0.23070508 0.08322788 0.37689745 -1.3351127
0001a0 f6 97 ea bf 96 34 f0 be 69 8a a5 be 7b 4c a0 3e
       -1.8327625 -0.4691512 -0.3233216 0.3130835
0001b0 37 b2 4e 40 bf b6 38 3d be c2 43 be 71 fb 23 3f
       3.2296274 0.045096155 -0.19117257 0.64055544
0001c0 3d b3 72 bf 74 18 3f 3f 5f b8 37 3f 9f 97 fe be
       -0.94804746 0.7464669 0.717657 -0.49725053
0001d0 ce c2 d6 3e 04 15 04 bf 59 58 90 3e d4 62 fe bf
       0.419455 -0.5159457 0.28192404 -1.987391
0001e0 8a 52 cc 3f 8c 62 67 bf 72 72 80 bf 38 bb a4 3c
       1.5962689 -0.90384746 -1.0034926 0.020108804
0001f0 99 cf c4 be e7 2c 04 bf 44 a4 83 3e bb bd 2f 3d
       -0.38439634 -0.51631016 0.25711262 0.04290555
000200 78 8b e6 3f cc 2e 55 c0 22 30 8d bf 61 da c7 3e
       1.8011312 -3.3309813 -1.1030314 0.39033797
000210 06 92 17 40 fb 68 29 be ab 70 8c 3f 17 f9 62 bf
       2.3682876 -0.16543953 1.0971884 -0.8866133
000220 a5 58 51 bc 99 ff 65 bf 96 28 83 3e 5a ac a9 3f
       -0.012777482 -0.89843136 0.25616902 1.3255723
000230 b8 16 f8 3f 42 3d 84 3f da a8 3a 3f 5d 75 a4 bd
       1.9381933 1.0331194 0.729139 -0.08030198
000240 43 7f 4d 40 52 3b 85 bc f1 75 0c bf 36 06 cd 3e
       3.2108924 -0.016263638 -0.54867464 0.400438
000250 d1 58 0d 3f a6 e1 7e 3f 57 a3 f4 3d 35 b1 01 bf
       0.5521365 0.9956306 0.11945217 -0.5066102
000260 d2 69 d7 3e 79 76 5d 3e 8f d6 c0 3f 5c f5 bb be
       0.42072922 0.21627225 1.5065478 -0.36710632
000270 8e 9c 0a be d3 0f cd 3f dc ce 52 c0 fb 62 23 3e
       -0.13536283 1.6020454 -3.2938757 0.15955727
000280 56 df 25 3f 6f c0 1b bd e5 ec fb 3f fa 9f 7d bf
       0.6479391 -0.038025316 1.968167 -0.9907223
000290 f0 55 6d 3f 6e 92 db 3e 2e 86 03 be 6b 8a fc bf
       0.92709255 0.42885154 -0.12844154 -1.9729742
0002a0 7d 1a a3 3b 25 09 86 3f 1d 0b fb bf 8f 90 30 40
       0.004977523 1.0471541 -1.9612767 2.7588232
0002b0 3b 30 c6 3f e1 9c 12 bf 35 83 47 bf bf 0a a4 3f
       1.5483469 -0.5727063 -0.7793458 1.281578
0002c0 2f f1 84 3f 8a aa 01 40 97 41 b0 bf 96 c9 7b 3f
       1.0386103 2.0260339 -1.3770016 0.9835447
0002d0 d7 bb 4d 3f 04 2c 84 bc b3 66 67 bf b6 11 1e 3e
       0.80364746 -0.01613427 -0.9039108 0.15436444
0002e0 e8 69 3a bf 29 28 fb bd 71 17 26 40 31 d2 10 40
       -0.7281785 -0.12263519 2.5951807 2.262829
0002f0 f6 72 d0 3f e8 b0 65 3f 61 9e 89 3f 1d 68 1c bf
       1.6285083 0.8972306 1.0751458 -0.61096364
000300 c5 94 10 3f 14 29 6d bf 43 8e e6 bf e2 7c 29 bf
       0.56477004 -0.92640805 -1.8012165 -0.6620618
000310 6a 2f 8f 3e 48 a4 37 bf fd 7a 1e 3f 6a f1 0f 3f
       0.27965862 -0.7173505 0.61906415 0.56227744
000320 6a 28 7e 3c 2c 68 0f 40 31 1c ed be 46 a8 2e 3f
       0.015512565 2.2407331 -0.4631057 0.68225515
000330 9c e3 eb bf d1 3f eb 3f 6f 18 3c bf 13 4d 62 bf
       -1.8428836 1.837885 -0.7347478 -0.88398856
000340 f6 2f 72 3f c9 41 a2 be f3 e4 28 bf 3f 55 69 be
       0.9460443 -0.31690815 -0.6597435 -0.22786425
000350 3e 40 5f be 60 d3 29 c0 8a 6f c1 3f a5 67 83 bf
       -0.2180185 -2.6535263 1.5112164 -1.0266005
000360 a8 bf d5 bf 9c 5f fc 3f 51 cd b9 3f 3c ef d4 bf
       -1.6699114 1.9716678 1.4515783 -1.6635509
000370 c0 aa 07 3e fc 57 c0 3f c4 86 2a 3f b1 b4 a6 be
       0.1324873 1.5026851 0.66611886 -0.32559732
000380 00 fe 30 be 57 47 45 bf 40 50 ab be 48 30 34 3f
       -0.17284393 -0.7706198 -0.33459663 0.7038617
000390 5a 8b 38 bf d7 bc 0a c0 ec a7 3e be 23 4e 84 40
       -0.72087634 -2.1677759 -0.18618745 4.134538
0003a0 0b ab aa 3e 6e 16 d9 3e 00 e1 fc 3e ec 52 00 40
       0.3333362 0.42399925 0.4939041 2.0050611
0003b0 7f 96 98 3f af 6f 0d bf c6 ac 45 3f 3f 31 08 c0
       1.1920928 -0.5524854 0.77216756 -2.1280057
0003c0 1c eb cd 3e 2b 03 89 3f 0f e9 59 3f 64 39 fa be
       0.40218437 1.0704092 0.85121244 -0.4887191
0003d0 a9 66 fe bd da 31 fa bf 16 a8 ee 3e c8 23 1c 40
       -0.124219246 -1.9546463 0.46612614 2.439684
0003e0 8e 70 8c bf 02 5e 9b 3f 04 94 17 3e 84 e9 ad 3f
       -1.0971849 1.2138064 0.14802557 1.3586888
0003f0 bf fe 08 40 ac 5c 14 40 77 9f 6d 3f 71 07 b4 3f
       2.1405485 2.3181562 0.9282145 1.4064771
