output/aesthetic_vec/before_after1/aesthetic_w1.npy (npy, 36992 bytes, 1 tensors)

array f4 [18, 512]
0	0xbf9bf23a	-1.2183297
1	0x3f1ff292	0.6247951
2	0x3ea26b98	0.31722713
3	0xbf381a6e	-0.7191533
4	0xbefdd8d6	-0.49579495
5	0x3e500c9e	0.20317313
6	0x40335b4e	2.8024478
7	0xbe99b86c	-0.30023515
8	0x3e8f5862	0.27997118
9	0xbf9c57b4	-1.2214265
10	0xbf695d88	-0.9115834
11	0xbeb11b1d	-0.34590998
12	0x4035230c	2.830264
13	0xc0013e10	-2.019413
14	0xbfe86c82	-1.8158114
15	0xbfad9814	-1.3562036
16	0x3ea312a2	0.31850153
17	0x3eb74512	0.35794884
18	0x3f7a7daa	0.97848
19	0x3f2febf8	0.68719435
20	0x4027975d	2.6186135
21	0x3f3c6cfe	0.7360381
22	0x40407df4	3.0076876
23	0xbf81b8a0	-1.0134468
24	0xbea40324	-0.32033646
25	0x3e60d72c	0.21957082
26	0xbd8354fe	-0.06412695
27	0x3f5c847a	0.86139643
28	0xbe637dd8	-0.22215974
29	0x3ee1ace0	0.44077206
30	0xbe955c70	-0.29172087
31	0xbeb122e2	-0.34596926
32	0x3f98f3bd	1.1949383
33	0x3fd3ff7c	1.6562343
34	0xbf122446	-0.570866
35	0x3f5b5ddc	0.85690093
36	0xbfbaa194	-1.458056
37	0xbde380f0	-0.11108577
38	0x40425458	3.036398
39	0xbfa93f4f	-1.3222445
40	0x3f221326	0.6331047
41	0xbfdf3354	-1.7437539
42	0x3f7f2c7d	0.9967726
43	0x3f57f123	0.8435232
44	0x3ffbab0e	1.9661577
45	0x40041f2f	2.0644033
46	0x402bbae0	2.683281
47	0x3ed0b466	0.40762633
48	0x3f7be4b2	0.98395836
49	0xc0244d0a	-2.567202
50	0xbf5137be	-0.8172568
51	0x3e808410	0.25100756
52	0x3e927aee	0.28609413
53	0xbfbb5b26	-1.4637191
54	0x3ed0541e	0.40689176
55	0xbb9374c0	-0.0045000017
56	0x400e75cf	2.2259405
57	0x3fc493ba	1.5357583
58	0x3f2f8691	0.6856471
59	0xbfd7a54f	-1.6847323
60	0xbfa3ef45	-1.2807394
61	0xbff9c864	-1.9514279
62	0xbff61b09	-1.9227
63	0x3de8c0b0	0.11364877
64	0xc004084a	-2.063006
65	0xbfd87516	-1.6910732
66	0xbe5c89c8	-0.21536934
67	0x3f9c13f6	1.2193592
68	0x3ebdebe8	0.37094045
69	0x400c3310	2.1906166
70	0x3fc8907b	1.5669092
71	0xc00971ba	-2.1475663
72	0xbf7e7ed1	-0.99412256
73	0xbfee7822	-1.8630412
74	0x4020dddf	2.513542
75	0xbfe5274e	-1.790262
76	0x3fed4826	1.8537643
77	0xbf21322a	-0.6296717
78	0x3fb58491	1.4181081
79	0x3fa6a518	1.3019133
80	0xbfb5f384	-1.421494
81	0x400b00e6	2.1719298
82	0xbeecc2ee	-0.4624247
83	0xbf14ac4e	-0.58075416
84	0x3f0c8841	0.54895407
85	0xbf90392d	-1.1267449
86	0x3f95c768	1.1701479
87	0x3f4cb5d3	0.7996494
88	0xbf69f542	-0.9138986
89	0xbdd21310	-0.10257542
90	0x3e45fd40	0.19334888
91	0x3e51e9e2	0.20499375
92	0x3e9c44f2	0.3052135
93	0x3eacf4ce	0.3378052
94	0x3f8b869c	1.0900455
95	0xbfc6999c	-1.5515628
96	0xbf3c3e2d	-0.7353237
97	0xc007c243	-2.1212318
98	0x3f541ffd	0.8286131
99	0xc00330b0	-2.0498466
100	0xbf411b29	-0.7543207
101	0xbfab5687	-1.3385781
102	0x3fe5af6a	1.7944157
103	0xbe8a3f52	-0.27001435
104	0x3fc7b940	1.5603409
105	0xbfae7e9e	-1.363239
106	0x3fc12ca6	1.5091751
107	0xbeb9b4d4	-0.36270773
108	0xbd1aa3e0	-0.03775394
109	0xbf43503c	-0.762943
110	0xbb477180	-0.0030432642
111	0x3f8387c3	1.0275806
112	0xbfc88bbb	-1.5667642
113	0xbeef6b12	-0.46761376
114	0x3fc65ff8	1.5498037
115	0x3f88bb85	1.0682226
116	0x3f504b98	0.81365347
117	0x3f664fb3	0.8996536
118	0xc00dc7b4	-2.215314
119	0x3faaa29c	1.3330874
120	0xbf71fcd8	-0.94526434
121	0xbfeb87fc	-1.8400874
122	0x3ea15712	0.31511742
123	0xbf786449	-0.97028023
124	0x3f98e65f	1.1945304
125	0x3e0f5370	0.13996673
126	0x3eb8fccc	0.3613037
127	0xbff678a7	-1.925557
128	0x3f650076	0.8945383
129	0x3ed28a18	0.41120982
130	0x3fe0a055	1.754893
131	0xbff4ab40	-1.9114761
132	0xc02d14c1	-2.7043917
133	0xc001c1cf	-2.0274541
134	0x3e29c7de	0.1658015
135	0x3e7ebe4b	0.24877279
136	0xbf3eb716	-0.74498117
137	0x3fc1b250	1.5132542
138	0x3e178698	0.14797437
139	0x3fc3cf74	1.5297685
140	0x3f05e9c0	0.523098
141	0xbf110b74	-0.566581
142	0x3fc40505	1.5314032
143	0x3fa916a1	1.3210031
144	0xbe9fffa2	-0.3124972
145	0x400add90	2.169773
146	0x400e0e1a	2.2196107
147	0x3f33c87b	0.70227784
148	0xbe72f540	-0.23726368
149	0x3f183d23	0.5946829
150	0xbf4e4c31	-0.8058501
151	0xbe59ddd1	-0.21276022
152	0x3fd4d24b	1.6626676
153	0xc001436a	-2.0197396
154	0xc076739e	-3.8508067
155	0xbf99f05a	-1.2026474
156	0xbffeec6c	-1.99159
157	0xbe83cfc4	-0.2574445
158	0x3e515790	0.20443559
159	0x3e8e2118	0.27759624
160	0x3edae37d	0.42751685
161	0x3e1acb1a	0.1511654
162	0x3fc4801a	1.5351593
163	0xbef36690	-0.47539186
164	0xbebfacdc	-0.3743657
165	0x3f8237a8	1.0173235
166	0x3fbca4f1	1.4737836
167	0x3d41c700	0.04730892
168	0x4035c430	2.8400993
169	0x3f1386ea	0.5762774
170	0xbf99fe74	-1.2030778
171	0xbfabfb3e	-1.3436048
172	0x4000ea31	2.014294
173	0x40235138	2.5518322
174	0xbf5f2f85	-0.87181884
175	0x3ff1f430	1.8902645
176	0xbf9904f7	-1.195464
177	0x4000629d	2.0060189
178	0x3f984c51	1.189829
179	0x3eaf0224	0.3418132
180	0xbd388d00	-0.045056343
181	0x3e8a1120	0.2696619
182	0xc03343c0	-2.8010101
183	0x3f9a041b	1.2032503
184	0x3fd23062	1.6421015
185	0x3eead3ed	0.45864812
186	0xc02c0862	-2.6880116
187	0x3fe56e3d	1.7924267
188	0x4033f92e	2.8120837
189	0x3f98423f	1.1895217
190	0xbfd9918a	-1.699754
191	0xbfb26967	-1.3938416
192	0xbf9f4994	-1.2444329
193	0x3e9ef624	0.31047165
194	0xc03b463f	-2.9261625
195	0x400f1495	2.2356312
196	0x3e5f78bd	0.21823402
197	0x3fe4ee5e	1.7885244
198	0x3fd9a4c4	1.7003407
199	0xbff373f0	-1.9019756
200	0xbf97d161	-1.1860772
201	0xbe3247d8	-0.17410219
202	0xbfb3799a	-1.4021485
203	0x3ff11407	1.8834237
204	0xbf89cb54	-1.0765176
205	0x3f105764	0.5638335
206	0xbf9c6bc8	-1.2220392
207	0xc011e981	-2.279877
208	0xbfbbead7	-1.4681042
209	0x3e5deacc	0.21671599
210	0x401dd955	2.46639
211	0xbfc4f95a	-1.5388596
212	0xbff81815	-1.9382349
213	0x3fff8de2	1.9965174
214	0x3e0f06ac	0.13967389
215	0x3dd4c540	0.10389185
216	0x3ee3a605	0.444626
217	0x3eb5625b	0.35426602
218	0xbe79d544	-0.2439776
219	0x3fa6bf0b	1.3027052
220	0xbe8b663e	-0.27226442
221	0x3f093308	0.5359349
222	0xbe2110ec	-0.15729111
223	0x3ff0d795	1.881579
224	0x3f257b5a	0.64641345
225	0xbde15984	-0.11003402
226	0x403dcf8c	2.9657927
227	0xbf60d363	-0.8782255
228	0x3ed1b6d5	0.40959802
229	0xbfa3b651	-1.2790014
230	0x3f18ebc8	0.59734774
231	0xbe8eeae0	-0.2791357
232	0x3d994bb0	0.07485139
233	0x3fa7e07e	1.3115385
234	0xbdcbd9d8	-0.0995366
235	0x3f6d1c58	0.92621374
236	0xbf91151c	-1.1334567
237	0x3efd8fbc	0.49523723
238	0xbf3be614	-0.73397946
239	0x3fa78fba	1.3090737
240	0x3f05fac2	0.5233575
241	0x3f930b01	1.1487733
242	0x3e3c157a	0.18367568
243	0xbfecf44b	-1.8512052
244	0x3fa58136	1.2930057
245	0xbf0b37c9	-0.54381996
246	0x3f9bedb6	1.2181919
247	0x3fddf913	1.7341636
248	0x3fd74c12	1.682009
249	0xbf714647	-0.9424786
250	0xbf8914f7	-1.0709523
251	0x3f92386a	1.1423466
252	0xc042b332	-3.0421872
253	0x3ec32af4	0.38118708
254	0xbf784401	-0.96978766
255	0xc00edbff	-2.2321775
