output/weights/after1/after1.npz (npz, 37120 bytes, 1 tensors)

w f4 [1, 18, 512]
00000000: 659a f9bf c46f e73f f81f e93f c1ca aa3f
00000010: 1196 7bbe 9694 3ebe c366 3cbd 3835 b9bf
00000020: 1c6a 933f c48b 0ac0 2fff 6fbf 828b 11bf
00000030: 1de9 cc3f 0345 ef3d b3ce 37c0 8676 8a3f
00000040: 5d91 5dbd 252b 9e3f 4f03 d93f 44b0 9c3f
00000050: 5cb2 d43f 0c71 2040 a824 9d40 666a babf
00000060: 72b6 9abf b1a5 2a3f 52ab 2c3e 266f 7b3f
00000070: 06e9 973f f3d1 b4bf d111 7fbf 21a0 493f
00000080: 0835 1240 d278 713f 97ce 943e 9058 11bf
00000090: 78c2 0e40 bd6e 88be 9342 0c3f 839c dbbc
000000a0: e654 743f 2858 883f c15a ff3e 212f 2a3f
000000b0: 15f0 d23f 2097 adbe fe0e 8c3f 4f14 dabd
000000c0: 1268 293f d23b 38bf 66fe cdbe f2d7 a5be
000000d0: d9c3 24bf c039 aebf 7db7 26bf a8d9 f6be
000000e0: 1f73 58be 0fea 733f cc7c 203f 5106 01c0
000000f0: cffc 0dc0 c006 443f e258 05bf 18d4 a83f
00000100: d4fa 83bf cf31 d0bf 29a0 843f 4f23 e33f
00000110: 94bc 45c0 b9b8 0240 5e8b 00bf 9078 123f
00000120: e394 cebf e496 69bf cd55 2f40 d7a2 313f
00000130: 8c9c 9a3f 7b5a 883e 16c9 6dbd ec66 5f3f
00000140: d52d 8e3e acb3 11bf e4f2 5e3e 0875 76bf
00000150: 4dfa 0fbf 078a 9c3f bda3 1e40 b6a5 ec3d
00000160: 13f9 a63e 0078 983f 2228 bc3f f181 703e
00000170: b122 563f b229 2f3f 4ac5 8b40 3909 20c0
00000180: c55d 68bf 92f7 82bf d4c8 d43f 2fd6 6ebf
00000190: 7114 21bf 31dc 67be e02d 1140 d017 b33e
000001a0: 8238 c23e 4d70 113e 7b02 cf3d 9db8 8cbe
000001b0: e415 4fbf 585a 483f e800 a23e 12c8 ce3f
000001c0: 3d85 e3bf 282c 7abf 364e d1bf 05e6 bf3f
000001d0: 2d76 fabe d714 c6bd 01d3 ec3f c8e0 69bf
000001e0: 1557 103c 7d49 ffbe 270d 8f3f d21b 8cbf
000001f0: b36d e3bf f455 ccbf f479 f03b 43ad bd3f
00000200: 37a5 b23f 91da 0bc0 a54e 8ebf 9d33 373e
00000210: c097 713f ad28 5abf 6c13 c63d 01d2 863e
00000220: b251 82be 9c98 39bf e21d 473f ead5 823f
00000230: bbda dfbd b159 5ebe 16f5 2dbf b3f4 d83d
00000240: 7851 d63e b671 e53f 0523 f73e cf4e 343f
00000250: 75ec 0a40 0f55 a83f c5ff 443f 227f 8dbd
00000260: 4148 6c3f a772 2cbf c198 97be 57eb 6dbf
00000270: 173d 8abc 3740 963f 6702 0e40 760c 04c0
00000280: e1c0 813d cf02 b63c fbc2 3040 b2af d73e
00000290: 6e6d f9be ae7f 2840 03b0 8c3f 1571 9c3f
000002a0: fbb9 b83f 38a2 f13f be43 93bf 2c39 573e
000002b0: 7324 993f 032a d33f 8815 cdbf 9404 2f3f
000002c0: c7a9 69bf a19a 8f40 d190 96bf 3360 d43f
000002d0: f711 a73f 7939 b23f 3d59 d3bf 7353 4b3e
000002e0: f5ab 9dbe a6ed a33e 31ce bf3f 9b78 d83f
000002f0: c911 a03f 8b23 b63e 7928 3abf 2560 78bd
00000300: aa6e 903e 38ad 833f 9e05 a73f a1cb 0e3f
00000310: 44c8 8d3e 79ae 743f ec4e 883f fb68 233f
00000320: 2aa0 03be 548f 4abf 5878 25bf 748a 0440
00000330: 7bb6 c7bf 8ea8 6e3f fcf3 89bf d0be ccbf
00000340: e561 e2be 42dc 923f 3e03 1b40 f4f6 4cbe
00000350: da6f 81bf 3780 78bf a84d 453f 79b1 0ec0
00000360: f7b2 d4be 5dc5 b63e 1732 593f b304 edbf
00000370: 9f1c 79bf 694a a1be 4e99 213f 5769 6540
00000380: 6697 2dbf 1922 cbbe 9ee0 953f 6fa1 7ebe
00000390: 3b6f cbbd b619 52bd 3f11 043e 5bc7 913f
000003a0: a257 973f f6ce 3b40 b8e7 353f 2d62 eb3f
000003b0: 2f4c 0bc0 dd49 a1bf a2b9 993f c2cf 493f
000003c0: 7438 b23f ce4c 173f ab47 e73e c15f 8c3f
000003d0: 7210 0140 0459 c6be e022 8c3f 84b2 f43f
000003e0: 8f9f 00bf 9524 53bf 473b aa3f 4bc3 30bf
000003f0: 4120 82bf 709e 533f 540d 443e 21eb 32bf
-1.9500242 1.8080983 1.8212881 1.3343126 -0.24568965 -0.18611369 -0.04599644 -1.4469366
1.1516757 -2.1647806 -0.93748754 -0.568535 1.600864 0.11683085 -2.871991 1.081742
-0.054093707 1.2356917 1.6954135 1.2241292 1.6616931 2.5068998 4.9107246 -1.456372
-1.2086928 0.66659075 0.16862229 0.98216474 1.1867988 -1.4126571 -0.9963656 0.7875996
2.2844868 0.9432498 0.29063866 -0.5677576 2.2306194 -0.26646987 0.54789084 -0.026808029
0.95442045 1.0651903 0.49873927 0.66478163 1.6479517 -0.33904362 1.0942075 -0.10648405
0.66174424 -0.7196628 -0.40233153 -0.32391316 -0.6436134 -1.3611374 -0.6512373 -0.48212934
-0.21137665 0.9527902 0.62690425 -2.0160105 -2.2185552 0.765728 -0.5208875 1.3189726
-1.0310922 -1.62652 1.0361377 1.774515 -3.089635 2.0425246 -0.5021266 0.57215214
-1.6139187 -0.91245866 2.7396119 0.693891 1.2079024 0.2663153 -0.0580531 0.8726642
0.27769342 -0.5691478 0.21772343 -0.96272326 -0.56241304 1.2229623 2.4787438 0.11555044
0.32611904 1.1911621 1.4699748 0.23487069 0.83646685 0.68422997 4.367833 -2.500563
-0.9076808 -1.0231802 1.6623788 -0.9329557 -0.62921816 -0.2264259 2.268425 0.34979105
0.37933737 0.14202996 0.10107895 -0.274846 -0.8089278 0.78262854 0.31641316 1.6154807
-1.7775036 -0.9772363 -1.6351993 1.4992071 -0.48918286 -0.09671944 1.8501893 -0.91358614
0.0088098245 -0.49860755 1.1175889 -1.094599 -1.7767853 -1.5963731 0.0073387567 1.48185
1.395667 -2.1852152 -1.111775 0.17890783 0.9437218 -0.85218316 0.09671673 0.26332095
-0.25452954 -0.7249849 0.7777997 1.0221531 -0.109303914 -0.21713902 -0.67952096 0.10593548
0.4185903 1.7925327 0.48268905 0.7043275 2.1706822 1.3150958 0.76952773 -0.06909014
0.9229775 -0.67362446 -0.2960873 -0.92937225 -0.016874833 1.1738347 2.2188966 -2.0632606
0.06335617 0.022218136 2.7619007 0.42126232 -0.487163 2.632793 1.0991215 1.222201
1.4431757 1.887763 -1.1505048 0.21017903 1.1964248 1.6497196 -1.6022196 0.6836636
-0.91274685 4.4876256 -1.1762944 1.6591858 1.3052357 1.3923789 -1.6511608 0.19856052
-0.30795255 0.3201725 1.49848 1.6911806 1.2505428 0.35573992 -0.72718006 -0.060638566
0.2820943 1.0287237 1.3048589 0.55779463 0.27691853 0.95578724 1.0649085 0.6383206
-0.12854066 -0.7912495 -0.64636755 2.0709505 -1.5602564 0.93225944 -1.0777583 -1.5995731
-0.44215313 1.1473467 2.422073 -0.2001608 -1.0112259 -0.9707064 0.7707162 -2.229582
-0.4154279 0.3569745 0.84842056 -1.8517059 -0.973093 -0.31502083 0.6312455 3.5845544
-0.6780914 -0.39674452 1.1709173 -0.2486627 -0.09933325 -0.05129405 0.12897204 1.1388963
1.1823618 2.934507 0.710567 1.8389336 -2.1765249 -1.2600666 1.2009776 0.7883264
1.3923478 0.5910157 0.45171866 1.0966722 2.0166287 -0.3873979 1.0948143 1.9116979
-0.5024347 -0.82477695 1.329934 -0.69047993 -1.0166093 0.8266363 0.1914571 -0.6989003
