output/aesthetic_vec/before_after5/aesthetic_w5.npy (npy, 36992 bytes, 1 tensors)

array f4 [18, 512]
-2.0163844 2.7862954 2.1435947 -2.4250991 2.8037384 3.2628813 -2.913876 -0.846836
0.5314398 2.000881 3.0559282 2.3836346 -0.75355303 0.16886878 -1.6027138 -2.148635
-1.6683581 1.073235 -2.4392521 -4.5527716 0.5864803 -0.649016 -2.514548 -1.0965766
2.5311952 4.7433243 0.37941426 1.602704 2.0901687 0.7582731 -1.1239101 3.9156222
-0.896261 0.295478 -4.81253 -1.6643125 1.1469632 -0.065332115 4.315468 -0.20835364
0.7396801 0.59457684 1.2967101 -0.12283492 -1.9450034 -1.3713297 -2.9742613 1.3731169
2.7448862 2.1657863 1.1038291 1.4020115 -1.9306642 -0.55068684 1.4463162 -0.8227644
2.5696387 0.59547186 0.50192535 5.830622 -1.6433848 0.36324605 -1.4207866 -1.1052569
0.4488098 0.38815296 -1.723289 2.8412786 4.211502 -0.8242517 0.8700266 0.5730767
-0.8455439 0.20965222 2.183138 -4.3888745 -2.1681347 1.4879062 2.9704964 -0.8427675
-0.2578724 4.4660316 1.8273296 -2.3181224 -1.8187166 -1.630181 0.7779356 -0.8751359
0.023212388 0.58337504 -0.62797874 -0.6300655 -2.4525054 -1.0824522 -2.4203837 -1.6337903
-0.35340583 0.92331696 1.1313834 1.5115855 -1.2639256 -0.39650443 -1.6959671 -1.4585391
-1.2152964 2.3333244 0.061834753 -0.87504137 3.2178564 -1.7442166 0.08473921 -0.83187145
-2.1799002 1.8417774 2.3712318 -1.0114933 0.5360557 -1.7572304 -3.2707443 -0.9877569
0.9556185 -2.2787547 -1.1632389 -1.3040187 -1.504315 -1.9285047 -1.9836372 -2.0716765
0.9688249 -0.5395546 -0.29416138 0.27129486 2.096679 2.1631873 1.3027744 -1.8125043
0.0010940367 -1.1450067 1.7315812 1.1170061 3.6213346 2.5735445 1.5025294 -1.8644364
1.4732592 1.0539925 -0.3898719 0.367093 -1.4241531 1.2751328 0.79311675 -0.17839742
-0.8125852 0.48178083 0.8821918 1.0536133 0.18141034 0.72833973 -2.4755714 1.6777883
1.6753784 -0.2517377 1.1289115 -1.6002747 -0.44386983 -1.8535354 0.3734155 -2.041981
-0.785456 -0.5584121 -1.3874964 0.5847511 -0.18401837 -0.6741925 1.3394871 0.4769497
-1.0390257 -0.8060763 0.10857141 1.2912898 -1.4207809 1.1879766 1.1360037 1.350941
0.5430019 -0.8029431 0.6355549 1.37449 1.1809089 4.2128687 0.9764012 2.4381776
1.1311551 0.5122802 -2.1416852 1.7468904 -0.76557344 -1.146736 -0.6546872 2.0265822
0.92837214 1.8464276 -1.6762247 2.116931 -1.8384682 2.6164603 1.348063 -0.35169792
0.12511432 -0.6933998 -2.0578196 0.24882711 -0.9492279 1.0079849 2.4063816 1.799934
0.8236604 -0.27598262 1.3662108 0.49872684 -1.2294667 1.8417804 -0.21485162 -0.14475843
0.5491187 0.037248075 0.40924162 -0.8814857 -0.66507983 -1.3670993 -1.990495 2.787716
-0.31534335 -0.9714199 -0.63208807 0.4525305 1.0324298 -1.47702 -0.34225214 -3.4154925
-1.4419343 1.232492 2.1462572 -1.3218925 -1.1378942 -0.33440804 0.42760035 -0.1573627
-2.3876216 0.6240306 0.9737712 1.470295 -3.4522574 0.87467384 1.7312148 -1.2665416
00000000: 710c 01c0 aa52 3240 a830 0940 d334 1bc0
00000010: 7370 3340 0cd3 5040 f27c 3ac0 3eca 58bf
00000020: 700c 083f 6f0e 0040 5494 4340 788d 1840
00000030: dae8 40bf f0eb 2c3e ba25 cdbf 3c83 09c0
00000040: c28c d5bf c45f 893f b51c 1cc0 4eb0 91c0
00000050: 9323 163f ea25 26bf 5bee 20c0 9f5c 8cbf
00000060: 1aff 2140 50c9 9740 9642 c23e 6825 cd3f
00000070: 53c5 0540 301e 423f 49dc 8fbf 8e99 7a40
00000080: 5c71 65bf e448 973e 3f00 9ac0 3108 d5bf
00000090: b1cf 923f d8cc 85bd 5018 8a40 a85a 55be
000000a0: ad5b 3d3f 3036 183f 99fa a53f e090 fbbd
000000b0: dff5 f8bf bb87 afbf 4c5a 3ec0 4bc2 af3f
000000c0: 37ac 2f40 3e9c 0a40 464a 8d3f 1d75 b33f
000000d0: 0120 f7bf d0f9 0cbf e420 b93f b0a0 52bf
000000e0: f674 2440 d870 183f 2e7e 003f 7594 ba40
000000f0: 6f5a d2bf 63fb b93e 56dc b5bf 0f79 8dbf
00000100: 66ca e53e fcbb c63e bc94 dcbf 82d7 3540
00000110: a0c4 8640 2902 53bf 10ba 5e3f 28b5 123f
00000120: 9175 58bf 12af 563e 88b8 0b40 a971 8cc0
00000130: b8c2 0ac0 b673 be3f 9d1c 3e40 9cbf 57bf
00000140: da07 84be bbe9 8e40 f0e5 e93f 1e5c 14c0
00000150: b5cb e8bf c5a9 d0bf ca26 473f e808 60bf
00000160: e827 be3c 1158 153f 37c3 20bf f94b 21bf
00000170: d9f5 1cc0 cb8d 8abf 91e7 1ac0 0a20 d1bf
00000180: 9cf1 b4be 805e 6c3f 2cd1 903f a27b c13f
00000190: 50c8 a1bf a102 cbbe 7315 d9bf 69b1 babf
000001a0: d58e 9bbf 3055 1540 7046 7d3d b602 60bf
000001b0: 5cf1 4d40 7d42 dfbf c08b ad3d 87f5 54bf
000001c0: 7c83 0bc0 5dbf eb3f 43c2 1740 9d78 81bf
000001d0: f23a 093f edec e0bf e053 51c0 a3dd 7cbf
000001e0: 6aa3 743f 1ed7 11c0 03e5 94bf 16ea a6bf
000001f0: 658d c0bf 3ed9 f6bf d3e7 fdbf 5996 04c0
00000200: e904 783f 4020 0abf 529c 96be 29e7 8a3e
00000210: fd2f 0640 a971 0a40 50c1 a63f 2400 e8bf
00000220: c865 8f3a 948f 92bf 74a4 dd3f 0efa 8e3f
00000230: f2c3 6740 f4b4 2440 e252 c03f daa5 eebf
00000240: c293 bc3f 3ae9 863f 4a9d c7be 9df3 bb3e
00000250: a64a b6bf 8d37 a33f b309 4b3f d0ad 36be
00000260: 9505 50bf faab f63e 52d7 613f cddc 863f
00000270: a2c3 393e 7974 3a3f c36f 1ec0 c4c1 d63f
00000280: cd72 d63f c4e3 80be 2c80 903f cdd5 ccbf
00000290: e842 e3be a640 edbf 5130 bf3e d1af 02c0
000002a0: a513 49bf 18f4 0ebf 7b99 b1bf 40b2 153f
000002b0: 506f 3cbe e197 2cbf 5074 ab3f c032 f43e
000002c0: cbfe 84bf 045b 4ebf b05a de3d fc48 a53f
000002d0: 26dc b5bf 9e0f 983f 9268 913f a2eb ac3f
000002e0: 2c02 0b3f ae8d 4dbf bab3 223f 4aef af3f
000002f0: 0628 973f d2cf 8640 6ef5 793f 1a0b 1c40
00000300: b1c9 903f cc24 033f 5f11 09c0 1b9a df3f
00000310: 9ffc 43bf 3fc8 92bf 9599 27bf 86b3 0140
00000320: cca9 6d3f bd57 ec3f 888e d6bf cc7b 0740
00000330: ed52 ebbf 1674 2740 548d ac3f c011 b4be
00000340: f81d 003e a682 31bf 51b3 03c0 89cc 7e3e
00000350: 9a00 73bf a605 813f 2802 1a40 3d64 e63f
00000360: 68db 523f 984d 8dbe ffdf ae3f 2059 ff3e
00000370: 2a5f 9dbf 76bf eb3f 1002 5cbe 8e3b 14be
00000380: 0b93 0c3f 7091 183d 1e88 d13e 0ca9 61bf
00000390: ac42 2abf 1cfd aebf 8ac8 febf f069 3240
000003a0: af74 a1be f9ae 78bf 86d0 21bf 14b2 e73e
000003b0: a926 843f fe0e bdbf ac3b afbe 6e97 5ac0
000003c0: 4e91 b8bf 4cc2 9d3f 475c 0940 c633 a9bf
000003d0: 84a6 91bf 8837 abbe 6fee da3e b023 21be
000003e0: cbce 18c0 78c0 1f3f 1249 793f a032 bc3f
000003f0: c9f1 5cc0 a0ea 5f3f 7298 dd3f 091e a2bf
