output/weights/after4/after4.npz (npz, 37120 bytes, 1 tensors)

w f4 [1, 18, 512]
000000 b3 56 f8 3f af cc 88 bf 95 17 70 3f 7b 79 71 bf
       1.9401459 -1.0687464 0.93785983 -0.9432599
000010 41 f7 59 3f fd f4 7a 3e 5c 4e 00 c0 d5 67 f3 3e
       0.85142905 0.24507518 -2.0047827 0.47540155
000020 63 fe 31 40 72 41 8c bf 44 89 10 40 9e dd 95 3e
       2.7811515 -1.0957472 2.258378 0.29270643
000030 24 55 03 40 2a 46 ab 3d 19 d5 9b bf 9e 22 c3 3f
       2.0520716 0.08362992 -1.2174407 1.5244939
000040 ff fc dc 3e e2 ce dd 3f 9a 32 20 3f 56 1c 16 c0
       0.4316177 1.7328761 0.6257721 -2.3454795
000050 c4 3c 0e bf 73 33 83 3f bb 01 ce 3e 0b a8 91 bf
       -0.5556147 1.0250076 0.40235695 -1.1379408
000060 ac 04 c8 3d 3b b3 41 40 12 9d 5b bf b0 1d 7a be
       0.09766516 3.0265644 -0.85786545 -0.24425387
000070 a7 f6 93 3e c3 5e 4e bf a0 16 4c bf d7 be 29 3e
       0.28899118 -0.80613345 -0.79722023 0.16576706
000080 d4 5b 94 bd 94 7c 4a bf 7d 46 b7 bd c7 c3 e9 3f
       -0.07244077 -0.7909634 -0.089489914 1.8262872
000090 41 18 df 3e 48 83 4e bf 52 5e cd 3e 4e 92 46 3f
       0.43573192 -0.8066907 0.40111023 0.77566993
0000a0 f5 a4 5e be dc d2 de 3f 4c 7d fa 3e c5 bf b0 3f
       -0.21742614 1.7408099 0.4892372 1.3808523
0000b0 9c 7a ac bf bd 7f 3c bf 74 50 a8 3f 28 11 83 bf
       -1.3474917 -0.73632413 1.3149552 -1.0239611
0000c0 40 f6 0c 3e 37 c3 70 3e 1c cf 31 3f 2b 97 92 bf
       0.13765812 0.23511969 0.6945665 -1.1452383
0000d0 e5 c6 b9 be 3c 2c 83 bf 8f 72 73 bf 57 99 80 bf
       -0.36284557 -1.0247874 -0.9509668 -1.0046796
0000e0 5e 27 1e 40 34 45 71 be 80 a6 5c 3f a4 f5 92 3f
       2.4711528 -0.23561555 0.8619156 1.1481214
0000f0 40 d1 c8 bd 6e 04 50 3f ef 0d 56 bf 85 06 70 bf
       -0.09805536 0.8125676 -0.8361501 -0.9375995
000100 7c 09 ad 3f d9 f3 24 bd 07 4b 11 40 fe 2d c8 3f
       1.3518519 -0.040271614 2.2702043 1.5639036
000110 12 3a 9f be 31 fe 48 3e 88 2a 5b 3f dc 28 9a 3f
       -0.31098992 0.19628216 0.8561177 1.2043719
000120 f3 fa 04 40 24 e4 de 3e 42 2d 15 40 26 cf 2b 3f
       2.0778167 0.43533432 2.3308873 0.6711296
000130 9d 72 be be 57 5b 6f 3f fe 2c 26 bf ef 8c eb be
       -0.37196818 0.9349875 -0.649124 -0.4600596
000140 ad 74 91 3e f0 3b 95 bf 5f b5 8f 3f c0 02 81 bf
       0.2840933 -1.1658916 1.1227225 -1.0078964
000150 f8 98 02 40 2a 49 1a bf 86 6d 8a 3f 13 9c bf bf
       2.0405865 -0.6026789 1.0814674 -1.4969505
000160 34 13 5e bf 67 aa 46 40 85 8f d0 3e 69 12 f5 3f
       -0.8674805 3.1041505 0.40734497 1.9146243
000170 c8 76 58 bf ea f3 87 bd 57 fa 5d 3f 6d af 25 c0
       -0.84556246 -0.0663832 0.86710113 -2.5888321
000180 3e 4d 90 bf 3e 59 32 3f ca 3d 6a 3e 96 28 4a 3f
       -1.1273572 0.6966742 0.22875133 0.7896818
000190 11 cc 28 c0 98 77 d6 bc ef 54 84 3f 87 38 b5 be
       -2.6374552 -0.026180074 1.033842 -0.3539469
0001a0 8a 1d 3a be e3 98 b9 bf a0 1d 93 3e e4 25 c1 be
       -0.18175331 -1.4499782 0.2873354 -0.3772422
0001b0 d9 b5 13 40 cb 10 86 3f 2a 89 c2 bf be ee 74 3f
       2.307974 1.0473875 -1.5198109 0.9567679
0001c0 1f 92 b7 bf 05 10 68 3f 62 68 70 3f 98 df 53 3f
       -1.4341468 0.90649444 0.93909276 0.8276305
0001d0 d1 81 fb 3e 3d 2e 15 c0 1f 5b a8 3f d1 81 5a bf
       0.4912248 -2.3309472 1.3152808 -0.85354334
0001e0 38 a5 f5 3f 85 d1 22 bf 35 88 7e bf 3f 0a a6 3f
       1.9191046 -0.6360095 -0.99426585 1.2971877
0001f0 2c ce eb 3e c6 e2 18 be 3b b8 3c 3f 5d 99 44 3f
       0.46055734 -0.14930257 0.73718613 0.76796514
000200 3f 8a c5 3f de 38 c0 bf 65 27 ba bf 19 85 8e 3f
       1.5432814 -1.5017354 -1.4543272 1.1134368
000210 80 bd 4b 3f 4d 52 6d bf 28 89 8f bf 33 04 ad bf
       0.7958603 -0.92703706 -1.1213732 -1.3516906
000220 55 3f 5d bf f3 13 90 3f 92 a6 08 bf f0 58 7d 3f
       -0.8642476 1.1256088 -0.53379166 0.9896383
000230 c4 4c 7f 3f 4c 34 67 bf af 57 74 bf 4c 12 83 3f
       0.9972651 -0.90314174 -0.95446295 1.0239959
000240 01 02 88 3f 78 8e 3e 3f 24 7c c3 bf ce f6 07 bf
       1.0625612 0.7443614 -1.527226 -0.5311097
000250 4f 97 83 3f 35 c1 98 3f 2d be 64 bf 4d c8 c5 bf
       1.0280551 1.1933962 -0.89352685 -1.5451752
000260 64 38 69 3e f2 f9 79 3e b5 ad da 3e 85 84 bd 3e
       0.22775418 0.24411753 0.42710653 0.37015167
000270 ee 47 87 3f 48 fe de 3f 6d 76 24 c0 9c f4 16 be
       1.0568826 1.742135 -2.5697281 -0.14741749
000280 be d6 05 bf 5d 87 de 3f 73 28 0f 3d 30 95 78 bf
       -0.52280796 1.738506 0.034950685 -0.9710264
000290 05 9a 62 3f b8 10 2e 3e 61 d8 06 c0 4f 3b 87 bf
       0.88516265 0.16998565 -2.1069567 -1.0564975
0002a0 bc 62 66 3f 9f 6e 03 40 6b 2c 4e 3d db 9b b8 3f
       0.89994407 2.0536268 0.05033533 1.4422563
0002b0 b6 47 93 3e eb 2b 13 3f 9f e4 f1 bf 29 96 45 bf
       0.2876565 0.5748889 -1.8897895 -0.7718225
0002c0 92 ad 9d 3e dc 79 ef 3f b8 0e 38 c0 51 15 a2 bf
       0.30796486 1.8709064 -2.8758984 -1.2662755
0002d0 3d a7 99 3f 97 ac 7f 3f b8 18 a3 bf e9 66 93 3f
       1.2004162 0.99872726 -1.2741919 1.1515781
0002e0 81 fc d9 bf f8 61 c4 3f 82 20 e0 3d e2 e8 4a 3f
       -1.7030183 1.5342398 0.109437004 0.792616
0002f0 6e aa 00 40 a8 2e 3a bf bd 40 43 3f 13 96 e7 3f
       2.0104022 -0.7272744 0.7627066 1.8092674
000300 ef e4 17 40 79 03 88 bf 39 22 6e bf a0 b8 45 bf
       2.373348 -1.062606 -0.9302097 -0.7723484
000310 86 18 1d 3f 7c f1 97 3f 99 65 0e bf 97 5d ca 3f
       0.61365545 1.187057 -0.55623776 1.5809811
000320 ae 9e 98 bf a7 e1 33 40 c3 6b 30 b9 56 a3 6b 3f
       -1.1923425 2.8106477 -0.00016824812 0.92046106
000330 f9 ad e9 bf 2f f3 07 3f 35 4f 95 3f 9c ca d4 bf
       -1.8256217 0.53105444 1.1664797 -1.6624331
000340 60 d2 a8 3e c1 80 64 bf 5d a6 2e be 19 b3 ec bf
       0.32973003 -0.8925896 -0.1705565 -1.8492156
000350 a0 46 8f 3f a2 bb b6 be 1e b1 c8 be bd f8 b5 bf
       1.1193428 -0.35690027 -0.3919763 -1.4216534
000360 13 83 84 bf 61 82 96 3f 11 08 c3 3f d0 32 6d bf
       -1.0352501 1.1758538 1.5236837 -0.9265566
000370 ef c2 39 3f 82 5d 80 bf 5f 20 a8 bf 3f 02 00 40
       0.7256307 -1.0028536 -1.3134879 2.000137
000380 23 fa 59 3e 94 e0 c6 3e ec cd 12 3f 41 1d ed 3f
       0.21286826 0.38843215 0.5734546 1.8524553
000390 3e 01 82 bc b2 19 00 c0 d4 cf 7f 3f 31 43 4f 3f
       -0.015869733 -2.0015683 0.99926496 0.809619
0003a0 fe 2b 69 3f 6a 10 6d 3e 32 43 d1 3e 66 56 4b bf
       0.9108275 0.23150793 0.40871578 -0.7942871
0003b0 0d 9e 06 bf 42 a3 7f 3f a3 04 1c 3f e6 c2 3a bf
       -0.52584916 0.99858487 0.60944575 -0.7295364
0003c0 2d 4f 48 3f 5d b7 f5 3f e3 bf c7 3e d4 09 0f 40
       0.7824581 1.9196583 0.39013585 2.2349749
0003d0 6e d1 17 c0 7c bf bb 3e fc e6 ad be d4 03 55 3f
       -2.3721576 0.36669528 -0.3396529 0.83208966
0003e0 45 26 be bf 3c 47 7a 3f dc 74 3f be b8 fe 15 be
       -1.4855429 0.97764945 -0.18696922 -0.14647949
0003f0 35 69 dd 3f 65 85 bb be 1e ad 7c bf fd c4 d9 3e
       1.7297732 -0.3662521 -0.98701656 0.42533103
