output/weights/after6/after6.npz (npz, 37120 bytes, 1 tensors)

w f4 [1, 18, 512]
000000 89 33 5d 3e e1 b1 31 c0 e4 de 88 3f 8f 33 52 bf
       0.2160169 -2.7764819 1.0693021 -0.8210992
000010 e6 e7 f9 3e 82 3b 95 3f eb 7a 83 c0 ed d3 9a 3e
       0.48809737 1.1658785 -4.1087546 0.30239812
000020 6e be 1c 40 16 51 c8 3d a7 e5 82 3f ca 1f 09 bf
       2.449123 0.09781091 1.0226334 -0.5356413
000030 30 78 64 3f 30 2b 90 bd f8 ff c8 bf e8 a0 7b bf
       0.8924589 -0.07039487 -1.5703115 -0.982924
000040 f2 43 1b c0 da aa bb bd db 67 3e 3f 65 6a c6 bf
       -2.426022 -0.09163447 0.7437722 -1.5501219
000050 fb 1c 59 3e d6 86 23 3f 28 f0 bb 3d e8 af c1 bf
       0.21202461 0.6387762 0.091766655 -1.5131807
000060 3b 22 0e bb 11 03 6d 40 74 98 f5 3e f5 b7 d0 be
       -0.0021687883 3.7033122 0.47967875 -0.40765348
000070 5f 7b 9f 3e 32 c2 9d 3d 35 c5 29 3f 19 2f c7 3f
       0.31148812 0.077030554 0.6631654 1.5561248
000080 fa 39 39 bf f7 28 09 bf 64 1f 87 3f 0f d2 e3 bf
       -0.7235409 -0.5357813 1.0556455 -1.779848
000090 aa 48 99 3e 2a 9b f7 bf 0c 32 1d bf 8a 8b 0b 40
       0.2993825 -1.9344227 -0.6140449 2.1803918
0000a0 78 b4 31 bf f0 89 04 40 fc 5d 95 bf 21 8d 02 be
       -0.69416 2.070919 -1.1669307 -0.12749149
0000b0 cf d8 c9 3e 74 3b 45 bf 12 e8 82 3f 11 90 a1 3f
       0.39423224 -0.77043843 1.0227072 1.262209
0000c0 c2 ad 45 3f e3 eb 0e 3f 9f 03 9d bf 98 18 c2 be
       0.7721826 0.55828685 -1.226673 -0.3790939
0000d0 6a 5d d6 3e 68 5f 9e 3e 6f 5a 1f c0 04 4c df bf
       0.41868144 0.30932164 -2.4898946 -1.7445073
0000e0 e2 53 fc bf 5f 31 b8 3f c1 be 9b bf 5a 98 84 be
       -1.9713099 1.4390067 -1.2167588 -0.25897485
0000f0 3e 09 f3 3f 73 9f 6a 3f 95 f7 6c 3f d6 67 27 3f
       1.8987195 0.9164955 0.9256528 0.65392816
000100 0e 0e 00 40 34 06 38 bf cd 31 c2 3f ad b5 24 40
       2.0008578 -0.71884465 1.5171448 2.5735886
000110 f8 b1 a1 bf 70 08 07 bd 06 c2 cb bf fb 0b e7 bd
       -1.2632437 -0.03296703 -1.5918586 -0.11281582
000120 b0 21 c0 be 5d bf cc be 30 2c 6a 40 f2 bc 04 3f
       -0.37525702 -0.3998975 3.658947 0.5185081
000130 ae cd c3 3f 7e 23 f0 3e ff 8e 83 be 7c de c2 bf
       1.5297143 0.46902078 -0.25695035 -1.5224147
000140 50 e3 a2 3f 51 bb aa bf fa 61 9e 3e f1 c0 a1 bf
       1.272562 -1.3338414 0.30934125 -1.2637006
000150 b8 a3 59 3c 62 d0 b0 bd 30 4a 16 3f 4b 4d 91 3f
       0.0132836625 -0.08633496 0.5870695 1.1351713
000160 f2 01 8d bf 51 54 4b 40 64 6d 55 3e 4f 45 0c 40
       -1.1016219 3.1770213 0.2084251 2.1917303
000170 be 6d 30 c0 16 5b 15 be 09 2f a7 bf c3 e9 d6 be
       -2.7566981 -0.14585528 -1.3061229 -0.4197522
000180 f7 16 48 bf 1e 06 6c 3e b0 0f 13 3f db db 50 bf
       -0.7816004 0.23049209 0.5744581 -0.8158547
000190 18 7b f4 be c8 c2 28 3e a6 ff 0d 3b b3 76 9d 3e
       -0.47750163 0.16480553 0.002166727 0.30754623
0001a0 19 7a 27 3f c8 08 96 bf a7 7d 3a 3e 17 20 6e 3f
       0.6542068 -1.172143 0.18211995 0.93017715
0001b0 d8 ad 12 40 c1 76 db 3e 65 f3 3d be 69 91 87 3f
       2.2918606 0.4286404 -0.18549879 1.0591251
0001c0 9b 34 92 3b 8c 9b ef 3f 7f 16 0e 3f 3d 0d c7 bf
       0.0044618375 1.8719344 0.55503076 -1.5550915
0001d0 c9 41 07 3e 56 ab 5f 3f c2 06 0e 40 d7 cb 13 c0
       0.13208689 0.8737081 2.2191625 -2.3093164
0001e0 3b a5 e3 3f 45 8b 9d 3f a0 2e 26 bf 28 b8 05 3f
       1.7784799 1.2308127 -0.64914894 0.52234125
0001f0 02 44 3f bf 1b 77 e1 be ae 39 13 bf 8f 4f 53 40
       -0.74713147 -0.44036183 -0.5750989 3.3017309
000200 71 d9 c5 3f d3 15 a5 bf 63 3d 60 be 9d 44 9c 3d
       1.5456983 -1.2897285 -0.21898417 0.076302744
000210 f5 57 d7 3f eb d8 b8 bd cf 90 4b bf 3e d7 0e 3f
       1.6823717 -0.09025749 -0.79517835 0.55797184
000220 7b 4c 5a 3f 2f 0b 52 3e 28 47 6f 3f c9 6d cb 3f
       0.8527295 0.20512079 0.9346795 1.5892879
000230 b1 33 04 3f ba 0d 0a be 47 ee 52 3f 37 fe 09 3f
       0.51641375 -0.13481799 0.8239483 0.53903526
000240 74 2b a2 3f e0 99 80 3f 2b fb c9 3d 30 63 7d 3f
       1.2669511 1.0046959 0.098623596 0.98979473
000250 19 60 8b 3e fa 03 4b 3f ad 3d c1 bf c3 6e fa 3d
       0.27221754 0.7930294 -1.5096947 0.12228157
000260 17 43 19 be 1b b2 0f bf 00 a4 87 be 76 e0 3c 3e
       -0.14966999 -0.5613114 -0.2649231 0.18445
000270 1d da 92 be d4 88 3d bf a2 ba 12 3f c7 09 b1 3e
       -0.28682032 -0.7403691 0.5731603 0.34577772
000280 5a f1 8b bf d4 14 dc bd 20 3d a7 3f 37 b1 24 c0
       -1.093303 -0.1074616 1.3065529 -2.5733163
000290 83 e8 fc 3f 8f 95 07 bf 5c 6f 87 3f 9f a7 82 3e
       1.9758457 -0.52962583 1.0580859 0.2551851
0002a0 97 9b cd be 0f 30 23 bf 83 bf 62 bf 05 5d 33 3f
       -0.40157768 -0.63745207 -0.88573474 0.7006381
0002b0 a0 5e 03 3f 32 4c f8 bf d7 3a 99 bf d3 3d 4f 3e
       0.5131626 -1.9398253 -1.1971081 0.20238428
0002c0 9f 08 1b bf 0a b0 5a 40 a5 8f 8e 3e 9e 7f 74 bf
       -0.6056003 3.4169946 0.27843967 -0.9550723
0002d0 02 7d 10 bf d7 db de 3f a3 f6 91 bf d2 1a 3f 40
       -0.56440747 1.741084 -1.1403393 2.986012
0002e0 bc 95 4e bf 74 9a d1 3e 5b 05 61 be 78 d2 03 40
       -0.80697227 0.4093815 -0.21974699 2.059721
0002f0 0f 1a 24 bf d3 91 87 3e 80 d0 8a 3d 57 d0 ed bc
       -0.6410226 0.26478443 0.067780495 -0.029030008
000300 de cb 22 40 a6 69 79 bf 8d ac a7 bf 06 6b cf be
       2.543693 -0.9742683 -1.3099533 -0.4051134
000310 5f 18 04 bf da 06 22 bf 52 e0 20 be 5d fb 15 3f
       -0.5159969 -0.63291705 -0.15710571 0.58586675
000320 c7 82 56 bf 73 cc 80 3f e4 2f 7c 3f 62 53 a1 3f
       -0.837933 1.0062393 0.98510575 1.2603571
000330 9a a2 de bf 97 cb 57 3f b9 87 ea 3f 6e 35 78 3f
       -1.7393372 0.8429503 1.8322669 0.9695653
000340 6c a3 84 3f 1c 7d 7a 3e fb 34 fb 3d 7b 3b 7d bf
       1.0362372 0.24461788 0.122659646 -0.98918885
000350 14 3d a1 3d bf a2 94 3f 6e 3c 34 3f 53 6f 75 bf
       0.07872978 1.1612166 0.7040471 -0.9587299
000360 d9 dc c1 bd 4c fe 00 40 65 fb 04 40 fa e0 0d c0
       -0.094659515 2.015521 2.077844 -2.2168565
000370 3b 2e 00 3e 5b b8 64 3f dd ab 09 bf d7 14 00 40
       0.12517636 0.89343804 -0.5377787 2.001272
000380 a5 2a 09 bd c7 2c e9 bf b4 21 8d 3e e7 e6 02 40
       -0.033487935 -1.821679 0.27564776 2.0453432
000390 f9 e7 a4 bd 9c 35 03 c0 76 61 ca bf f9 4a 78 3f
       -0.08052058 -2.050147 -1.5810993 0.969894
0003a0 07 c4 1e c0 01 7a a8 be ec 06 d7 3f 1f 87 90 3e
       -2.4807146 -0.32905582 1.6798987 0.2822809
0003b0 55 37 87 3e 69 b2 30 c0 14 71 13 40 95 01 17 be
       0.26409402 -2.7608893 2.3037767 -0.14746697
0003c0 06 98 0c c0 48 1e 46 3f fd a8 a2 be bc 99 81 3f
       -2.1967788 0.77389956 -0.31769553 1.0125041
0003d0 b0 92 00 3f fd 4b 25 bf 54 8b cc 3f fd 8d b5 bf
       0.5022383 -0.64569074 1.598002 -1.4183956
0003e0 f5 53 17 c0 11 06 07 3f 7f 1e 7b 3f b6 76 8d be
       -2.3644993 0.5274363 0.9809341 -0.27629632
0003f0 3e f4 cd 3f 54 31 02 40 c9 e2 ca 3e 79 c1 59 3f
       1.6090162 2.0342607 0.39626148 0.8506084
