output/weights/before1/before1.npz (npz, 37120 bytes, 1 tensors)

w f4 [1, 18, 512]
000000 55 50 3b bf 7b 76 97 3f 12 85 c0 3f fc 6b 03 40
       -0.7316945 1.1833032 1.504061 2.0534658
000010 cd 0d 80 3e 9a 50 c7 be e9 4c 36 c0 1d c7 92 bf
       0.2501053 -0.38928682 -2.8484442 -1.1467015
000020 07 28 5f 3f a8 7f 71 bf e9 34 d4 bc ce f7 63 be
       0.8717045 -0.9433541 -0.025904136 -0.22262499
000030 fb 5c 9d bf 38 b8 08 40 e4 30 87 bf 4d 07 1c 40
       -1.2294 2.1362438 -1.0561795 2.4379456
000040 ce c4 be be c1 b3 60 3f f4 88 37 3f 90 74 09 3f
       -0.37259525 0.8777428 0.7169335 0.53693485
000050 bb f8 74 bf 99 ab e2 3f b8 96 f3 3f 18 c7 e2 be
       -0.9569203 1.7708617 1.9030371 -0.4429252
000060 52 6b 63 bf cc df e4 3e d1 55 6e 3e 5d 55 f7 3d
       -0.8883563 0.44701993 0.23274924 0.12076829
000070 c1 58 b4 3f 2b 3d ed bf 99 63 34 bf c9 18 91 3f
       1.4089586 -1.8534292 -0.70464474 1.1335689
000080 53 76 8b 3f 25 86 36 bf 92 8b 5c 3f 36 5b b6 bf
       1.0895485 -0.7129844 0.8615047 -1.4246585
000090 42 13 6c 40 02 1d 1f be b3 43 1f c0 dd d0 a5 3f
       3.6886754 -0.1553841 -2.488507 1.2954365
0000a0 81 83 a4 3e be c5 33 40 39 fe fe be 09 08 37 be
       0.3213158 2.8089442 -0.49803331 -0.17874159
0000b0 e2 eb a2 be 13 d2 19 c0 c2 66 cb bf bd 9c 03 bf
       -0.3182059 -2.403447 -1.5890734 -0.5141104
0000c0 41 f9 a4 be 2a 7c ec 3f 15 71 d4 3e 01 2e 13 bf
       -0.32221416 1.8475392 0.41492525 -0.5749207
0000d0 50 01 6e bf 59 16 d2 3d c6 70 87 bf d5 8b f4 be
       -0.9297075 0.10258169 -1.0581291 -0.47762933
0000e0 01 fd 1b c0 65 3d 15 bf 50 9c 70 bd 4c 9d a9 be
       -2.4373171 -0.58296806 -0.05874282 -0.3312782
0000f0 b2 14 70 bf e2 e5 2d 40 98 6e b3 3f 0d 48 9a 3f
       -0.9378158 2.717156 1.4018126 1.2053238
000100 bf 15 84 3f 6f 34 84 3d 62 31 a0 3f b1 1e 0e 3f
       1.0319136 0.064553134 1.251507 0.5551558
000110 11 7a 5d c0 74 a5 17 be 15 6b 04 c0 de 0f 2e 40
       -3.4605753 -0.14809209 -2.0690358 2.7197185
000120 f5 aa 1e bf 5f 59 73 3f e1 7e 67 3e 5d fc 1e 40
       -0.6197961 0.95058244 0.22606994 2.484153
000130 34 57 25 bf 68 5f 65 3f da f2 bc bf 87 c6 db be
       -0.64586186 0.89598703 -1.4761612 -0.42924902
000140 f9 7e d9 3f d1 6d 2f c0 30 1e 2e 3f 75 91 c3 be
       1.6991874 -2.7410777 0.6801481 -0.38196912
000150 47 41 8e bf 9a 61 16 40 12 80 a7 3f 1c 21 2f bf
       -1.1113671 2.3497071 1.3085959 -0.68409896
000160 e6 b8 9e 3f 31 99 a5 3f 7a 68 a3 3f 76 c0 f4 3c
       1.2400177 1.2937375 1.2766259 0.029876929
000170 38 00 08 3f 96 5e b1 3e 46 c7 51 40 ac f1 72 bf
       0.53125334 0.34642476 3.2777877 -0.9490001
000180 5f 7e 30 be f4 8c 8c 3f ab 71 55 3f 48 f6 8e 3f
       -0.17235707 1.0980515 0.8337657 1.1168909
000190 e0 1a 00 3e 01 5b 8e 3f 58 b1 f2 3e 91 ab 1e 3f
       0.12510252 1.1121522 0.47400928 0.6198054
0001a0 1f 2b 97 bf a8 ac c0 3f 7e 3c b4 bf db f0 b3 3d
       -1.1810035 1.505269 -1.4080961 0.08786174
0001b0 a6 6b 45 bf 4a d5 c5 3f cb 8f a3 3e 9e 80 16 3f
       -0.77117383 1.5455716 0.31945643 0.58790004
0001c0 0d cc 57 be 9f 76 02 bf 17 d7 4b c0 00 aa dc 3e
       -0.21073933 -0.5096225 -3.185003 0.4309845
0001d0 57 c3 a6 bf 4e 12 7f bf 9a 18 82 40 80 c9 0f c0
       -1.3028363 -0.99637306 4.065503 -2.2466736
0001e0 34 3e 74 3f 9d b5 ab 3f c5 6e 4d 3f d8 9a fe bd
       0.95407414 1.3414799 0.80247146 -0.12431878
0001f0 09 2a 3e c0 62 40 de bf e4 3a b5 be f5 12 5a 40
       -2.9713156 -1.7363398 -0.35396492 3.407407
000200 f8 49 00 3f d4 2b 26 c0 7d 77 37 c0 da c8 05 40
       0.5011287 -2.596425 -2.866668 2.090384
000210 b1 7a 69 40 47 6f 96 3f 50 7c 8d bd 71 5b 6e 3c
       3.6481135 1.1752709 -0.06908476 0.0145481685
000220 7b 1c fb 3e 4f 3f 0f c0 3c 3c 21 3f 14 f3 01 bf
       0.49045166 -2.238239 0.62982535 -0.5076153
000230 17 e5 21 bf 0f ea b2 3e c8 7f 0d c0 56 87 9b bf
       -0.6324019 0.34944198 -2.2109241 -1.2150676
000240 8d 28 3b 3f a7 25 c1 be 72 53 de bf d7 53 06 3b
       0.7310875 -0.3772404 -1.7369215 0.002049675
000250 c9 1b 1a 40 fb 6c 38 3f fb a5 c9 3f 40 1e 13 3e
       2.4079459 0.7204129 1.5753778 0.14367008
000260 55 5c 3d bf 81 4d ac 3f 86 80 63 40 bb ea 8b 3e
       -0.7396901 1.3461152 3.5547194 0.27327523
000270 78 c3 fc 3f 28 34 b7 3f ee ec 00 40 99 d0 15 c0
       1.9747152 1.4312792 2.014461 -2.3408568
000280 45 73 ba be c0 0a 04 be dc 05 9d 3f 21 8b 65 3f
       -0.3641607 -0.12894726 1.2267413 0.8966542
000290 46 02 e7 bd b4 c7 ce 3f b8 d3 bf be dd 62 96 3f
       -0.112797305 1.6154695 -0.37466216 1.1748921
0002a0 66 ce b2 bf c3 de a7 3f c5 56 57 3d 64 e2 c6 3f
       -1.3969238 1.3114856 0.052572984 1.5537839
0002b0 de 5f 51 bf da f0 66 bf 8b fb 3a bf e6 71 9a bf
       -0.81786907 -0.9021126 -0.73040074 -1.2066009
0002c0 4d c0 90 3e a5 d2 1e 40 91 6e 17 c0 aa 9f a8 3f
       0.28271714 2.4816067 -2.3661234 1.3173726
0002d0 5f d6 ac 3f 31 b5 8f 3f 42 2e 93 3f ad 99 80 bf
       1.3502921 1.122717 1.1498492 -1.0046898
0002e0 5f 9b f9 bf 8e cc 0d be bd f7 85 40 19 5a cf bd
       -1.950054 -0.13847563 4.1864915 -0.10124607
0002f0 93 e0 c7 bf b9 72 55 bf 9a fa 78 3f 66 a6 aa 3f
       -1.561541 -0.8337818 0.9725739 1.3332031
000300 3f 65 c3 3f 5e df 37 3f 87 64 87 40 5a c3 d6 bf
       1.5265273 0.71825206 4.2310214 -1.6778367
000310 2d 5f 70 3d 44 2e 55 bf af ab 22 bf 37 94 22 40
       0.058684517 -0.8327372 -0.6354322 2.5402963
000320 5c 5d 87 3f 5e fd 1d bf dc 7a 41 3f 0a 07 40 3e
       1.0575366 -0.6171473 0.75578094 0.18752685
000330 9d ac f7 be 53 a2 bc 3e 60 be 13 3e 64 28 2e 3f
       -0.4837388 0.36842594 0.14428091 0.6803038
000340 5e 52 83 3f d1 3d 6e 3f d2 85 35 bd 7c 5a ab 3f
       1.0259511 0.93063074 -0.044317074 1.3386989
000350 76 50 6d 3f ff e6 3d c0 fd 8b 21 3f a3 57 15 c0
       0.927009 -2.967224 0.6310423 -2.333474
000360 7e 2c 5c bf d8 80 31 3b b4 d3 8b 3f df e1 49 c0
       -0.8600539 0.0027084854 1.0923982 -3.154411
000370 80 69 33 bf 3c d8 59 bf 89 dd 49 3f 19 fb d9 3f
       -0.70082855 -0.8509557 0.7885366 1.7029754
000380 60 89 a9 bf b8 cb 92 be 7a be e5 bf 07 2b 21 3f
       -1.3245049 -0.2867105 -1.7948754 0.6295628
000390 52 49 02 bf 83 25 9d 3f f1 ce ef be 13 82 b5 3f
       -0.5089313 1.2277073 -0.4683757 1.418032
0003a0 e7 c2 8d 3f 6e bd cf 3f f3 62 4f 3f 02 a8 69 3f
       1.1075104 1.6229684 0.8101036 0.91271985
0003b0 42 83 85 bf cc ad e0 bf ac ac f7 3f b3 4f 05 bf
       -1.0430682 -1.7553039 1.934957 -0.52074736
0003c0 26 76 5e 3f 34 c9 0e bf ee 3c 89 3e 06 aa 3c 40
       0.8689903 -0.5577576 0.26804298 2.9478774
0003d0 5d 3f 39 3f 1b 2d 20 3e 5c ad fc bd 88 cb 35 3e
       0.7236231 0.15642206 -0.12337753 0.17753422
0003e0 ed cd 0b c0 8e 0d f1 3d 1f a8 19 40 10 9a ea bf
       -2.1844437 0.117701635 2.4008863 -1.8328266
0003f0 11 a3 01 40 ec 11 e4 3e ab a3 94 3f 6d 42 c4 3f
       2.0255778 0.44544923 1.1612448 1.5332772
