output/weights/after3/after3.npz (npz, 37120 bytes, 1 tensors)

w f4 [1, 18, 512]
0.33147737 -0.5936609 0.85559237 -0.46418405 1.100915 2.2457435 -2.3727953 -0.2575639
2.619428 -1.431439 1.1966999 1.5500289 1.481208 -0.49090126 -0.15969217 -1.4647264
-0.9345539 1.7172481 0.059698436 -0.79368526 -0.5355038 3.145634 1.2668197 -3.0012643
0.27442518 2.1082463 1.1262629 2.045259 0.10353126 0.11317217 0.81198525 2.824138
-2.306531 1.0387291 -0.7139432 1.1999497 -0.85148185 -2.030888 -2.3670676 -0.42930624
-1.1121411 -0.4874039 0.6941951 -0.85178316 2.7429883 0.03803233 1.5694889 0.13219056
-0.22145347 -0.052087687 1.5204886 -3.4130933 -0.4941734 -0.9688814 -1.1007873 0.3318653
-0.02214122 -0.77771044 -0.22311188 0.5429866 -0.9062125 2.07895 0.34056693 0.76589423
-0.6295939 -0.22657053 1.3928143 2.7690747 -1.1819277 -0.2687765 -0.079781756 0.36622712
-0.47846562 0.26076958 1.0185808 -1.7795129 0.15459597 0.6921992 -0.8888776 -0.55668193
0.37441206 -1.4348623 0.39838877 -2.2334516 4.3866153 0.31768182 1.1327323 0.19462557
0.40851733 1.2839181 2.5586016 -0.12921126 -0.21437211 -0.055851415 -0.019943727 -1.1597167
0.6417302 -1.6834407 -1.1924433 0.8030978 0.08844677 0.974961 0.55844444 -1.6373216
0.4027664 -2.7165544 -2.3238807 0.40900767 -0.19910996 -1.7908268 -0.06707021 -0.5031968
-0.68749416 1.4476391 -0.8909082 1.1104821 0.453269 -1.4736315 0.729994 -1.0342602
1.888217 -1.1303191 -0.5742282 -0.42754847 -1.0741187 0.012243522 0.24246864 0.24002786
2.667579 -2.871422 1.7920816 -0.3481366 2.0049253 -0.8599302 -2.885132 -1.4252493
1.2992544 2.548567 -0.44657618 0.2122243 1.7624335 0.56996065 -1.5600065 -0.7435445
0.9876324 -0.49792838 0.5616722 -0.025588157 1.4307697 0.14884476 -0.7476683 -1.7425838
1.3307898 1.2980685 -1.0109792 -0.7541844 -0.94049996 1.160658 -1.0181011 -0.4721393
-0.012806518 -0.5798331 3.0194154 -1.6349403 0.9009794 0.4325843 0.87440324 -1.2412336
1.2399787 0.2972188 0.6243586 1.5155631 1.850081 -0.96370745 -0.71293217 3.0802727
1.8416787 2.4759655 -1.0769862 1.1666348 0.34150797 -0.31800294 -0.48517677 0.35993344
0.9294703 1.0886871 1.8241524 0.76499003 1.5690141 0.19695275 -2.1370687 0.012424767
1.1047251 -0.041709978 0.33415636 -0.9065753 0.12580416 -1.1730143 1.237362 -0.2658305
-0.38686943 1.9473414 -0.4422529 1.2211853 -2.6874766 2.0009158 -1.0092537 0.12916878
0.30092472 -2.3482668 0.84100115 -0.56169194 -0.78309274 1.1697859 0.12906058 -2.3816736
0.1110944 1.8984884 1.1099019 -1.8682649 0.73109245 -0.77124757 1.2506837 0.3987874
-0.04510825 -1.1290075 -0.045953885 1.7191299 -1.3049994 -0.55856913 -1.3821955 0.7490433
0.23600234 -1.1210319 0.31586447 0.26805204 -0.22517471 1.0222124 0.69737554 0.573491
0.34188163 -0.8468777 -1.2935071 2.0335875 -0.12770416 -1.9359695 1.1994456 1.7485805
-0.21312249 1.8325801 1.6877457 1.1872123 1.6093657 1.5453815 -2.0424435 -0.21842021
00000000: 67b7 a93e 29fa 17bf 1a08 5b3f 88a9 edbe
00000010: c8ea 8c3f 43ba 0f40 e1db 17c0 6adf 83be
00000020: b5a4 2740 6539 b7bf 762d 993f 5967 c63f
00000030: 3998 bd3f 6957 fbbe 5886 23be 287c bbbf
00000040: ed3e 6fbf c9ce db3f 5986 743d f52e 4bbf
00000050: c716 09bf 1152 4940 2627 a23f b714 40c0
00000060: 7581 8c3e 82ed 0640 6229 903f 86e5 0240
00000070: 3208 d43d d0c6 e73d 44de 4f3f adbe 3440
00000080: 349e 13c0 13f5 843f fbc4 36bf f497 993f
00000090: b7fa 59bf 12fa 01c0 097e 17c0 07ce dbbe
000000a0: a45a 8ebf 018d f9be c5b6 313f 760e 5abf
000000b0: 1f8d 2f40 cac7 1b3d 03e5 c83f f65c 073e
000000c0: b3c4 62be e659 55bd 5f9f c23f 1f70 5ac0
000000d0: 4c04 fdbe 9d08 78bf 99e6 8cbf 40ea a93e
000000e0: 8161 b5bc 0818 47bf 7177 64be 2b01 0b3f
000000f0: 8bfd 67bf 840d 0540 ca5e ae3e a511 443f
00000100: 112d 21bf 1b02 68be bd47 b23f 8538 3140
00000110: 6849 97bf 139d 89be 9e64 a3bd 1f82 bb3e
00000120: 72f9 f4be 9783 853e db60 823f 14c7 e3bf
00000130: 684e 1e3e f733 313f 7b8d 63bf b582 0ebf
00000140: f0b2 bf3e 91a9 b7bf 9df9 cb3e dff0 0ec0
00000150: 275f 8c40 31a7 a23e 5ffd 903f ed4b 473e
00000160: 2f29 d13e 6e57 a43f 21c0 2340 f54f 04be
00000170: 5d84 5bbe 74c4 64bd 0761 a3bc 9971 94bf
00000180: 6e48 243f fc7a d7bf fba1 98bf d197 4d3f
00000190: 9523 b53d 0b97 793f 37f6 0e3f c193 d1bf
000001a0: 6637 ce3e 07dc 2dc0 76ba 14c0 7469 d13e
000001b0: 7be3 4bbe d039 e5bf 1b5c 89bd 81d1 00bf
000001c0: 9eff 2fbf 3d4c b93f 8f12 64bf 4724 8e3f
000001d0: e012 e83e f59f bcbf e3e0 3a3f a362 84bf
000001e0: 18b1 f13f 4cae 90bf 9f00 13bf a2e7 dabe
000001f0: b97c 89bf 0e99 483c b349 783e ddc9 753e
00000200: 9db9 2a40 61c5 37c0 ee62 e53f f63e b2be
00000210: b250 0040 6324 5cbf 01a6 38c0 926e b6bf
00000220: f84d a63f b91b 2340 a2a5 e4be 5451 593e
00000230: 6c97 e13f f1e8 113f 4bae c7bf ef58 3ebf
00000240: 7ad5 7c3f 78f0 febe c0c9 0f3f 419e d1bc
00000250: 7623 b73f c36a 183e 3167 3fbf fc0c dfbf
00000260: 5257 aa3f 1c27 a63f c467 81bf 3b12 41bf
00000270: 9bc4 70bf 7190 943f 2351 82bf 3ebc f1be
00000280: 6ed2 51bc f16f 14bf 1a3e 4140 b945 d1bf
00000290: 96a6 663f b07b dd3e e4d8 5f3f bee0 9ebf
000002a0: 9fb7 9e3f 102d 983e f7d5 1f3f f9fd c13f
000002b0: 74cf ec3f 88b5 76bf b982 36bf 3023 4540
000002c0: 21bc eb3f 3876 1e40 afda 89bf 4a54 953f
000002d0: 22da ae3e 48d1 a2be 1769 f8be 3249 b83e
000002e0: c4f1 6d3f 195a 8b3f d37d e93f 63d6 433f
000002f0: 74d5 c83f fbad 493e bcc5 08c0 4091 4b3c
00000300: a267 8d3f 15d8 2abd 8b16 ab3e 5215 68bf
00000310: ced2 003e 5525 96bf e161 9e3f ef1a 88be
00000320: c013 c6be 7c42 f93f f96e e2be cd4f 9c3f
00000330: 9eff 2bc0 010f 0040 3a2f 81bf d244 043e
00000340: ce12 9a3e 014a 16c0 da4b 573f 0bcb 0fbf
00000350: c478 48bf 8bbb 953f 7528 043e 576d 18c0
00000360: 7685 e33d ab01 f33f 4411 8e3f 4e23 efbf
00000370: e028 3b3f 7b70 45bf 6716 a03f dd2d cc3e
00000380: 6ec3 38bd 5183 90bf 243a 3cbd 730c dc3f
00000390: 380a a7bf 63fe 0ebf c8eb b0bf 4dc1 3f3f
000003a0: 99aa 713e f97d 8fbf fdb8 a13e 1e3e 893e
000003b0: 3394 66be dbd7 823f 3487 323f 4ed0 123f
000003c0: 1c0b af3e facc 58bf a491 a5bf 4c26 0240
000003d0: e1c4 02be d9cd f7bf 6f87 993f 7cd1 df3f
000003e0: c83c 5abe fc91 ea3f 0d08 d83f 93f6 973f
000003f0: b2ff cd3f 10cf c53f 65b7 02c0 8ca9 5fbe
