output/aesthetic_vec/before_after4/aesthetic_w4.npy (npy, 36992 bytes, 1 tensors)

array f4 [18, 512]
2.5512018 -0.86189234 -0.22638386 2.768211 0.7748488 -0.08310579 -1.6515496 1.346825
2.5493138 0.38708222 2.7128305 2.5443602 3.3351893 1.5470024 -0.561328 0.40518653
1.1674104 0.668385 -0.21059442 -1.150846 -0.10488361 0.63998806 0.7056478 1.1351568
0.9099767 0.90055203 0.3509258 1.5323197 0.78956664 -0.8789122 0.7645811 -1.6649284
0.61875725 -1.8877509 -1.7872875 3.1665914 -0.012790978 -0.3078703 1.2627425 -0.5706221
0.83691317 -0.75017047 0.6907436 0.24024642 -1.9120919 -0.44874808 -1.4911895 -1.182084
-0.8321287 -1.0843378 0.93827885 -1.6038837 -1.0809886 -0.1435374 -1.3348897 0.22465742
3.4539456 -1.5177042 1.2301476 -0.004888177 1.4349362 0.47526518 -1.1417892 0.012645543
1.0887973 2.3374147 3.4650502 -0.60580254 -0.13512167 -0.50410414 1.5798125 1.9658179
-0.03599453 -0.73743975 -0.9480727 -0.42289734 -0.76459146 -0.43353397 0.44820154 -0.6929885
1.0318525 0.20480227 0.31803674 0.07462907 5.074953 -2.0392914 -0.41275847 -0.46506894
-1.7400961 -0.8255646 -1.411505 0.34236395 0.4742006 -0.90668005 -1.3036172 0.7361932
0.6098517 1.8704158 -0.053284794 2.987702 -2.268098 -0.13911563 0.8643203 -0.46082038
-1.2042233 -1.3673359 2.2190142 -1.5883466 0.65667546 0.9385289 0.4870212 1.6165783
-1.8829072 1.9816177 1.7586218 0.32895228 0.99698937 -3.1304595 1.9350433 -0.8070781
0.9578427 0.09574139 0.34647053 0.46190363 0.19908315 0.60997057 -0.6615463 -0.9516303
0.5808788 0.63169265 -0.7302873 1.0084252 1.8489568 -2.1538675 -0.48160535 -1.6444049
-0.77503884 0.7677325 -2.7699065 1.1349586 1.5706482 0.13664067 -1.0465522 0.1638847
0.38270056 1.2260059 -2.2654195 -0.3058582 -0.45147228 -0.6793244 -2.9317796 -0.9436195
-0.5878306 -0.89141643 -0.7850553 2.0125172 0.1712864 -0.4862051 -1.8676791 1.194524
-1.3429279 1.8375303 -0.66706914 -1.5350943 0.1280042 2.5599961 -1.320987 -2.6495705
1.6129284 1.5974985 1.1652128 1.0581636 -0.13042653 1.4006686 -0.020265102 -0.6035346
0.22293094 -0.09194839 -2.3845487 -2.059979 0.62741053 -1.0307684 0.041515827 -0.91411555
-1.460166 2.2860794 -0.2252466 0.6181662 1.5265014 -0.36206865 2.6559746 1.5598518
0.4491496 -1.2659292 -0.2219612 -0.58842754 0.78628194 4.19112 -0.9103297 1.030378
-1.2197146 2.3381333 -2.962596 -0.37255073 2.559321 -1.2410085 0.84679794 -1.5590565
-1.5252731 -0.97341305 1.3733087 -1.6238178 0.6228597 -2.1714063 0.1260413 -0.19414067
-1.9820764 -0.69745255 -0.7511383 0.6311791 1.1538644 -2.564529 -0.41504765 0.61445546
0.12488629 2.773192 0.4142802 2.2383034 1.2500211 0.41086173 0.2978518 -0.8303835
0.23822647 0.114972994 -0.32713324 -0.06320524 -1.7415447 0.4811325 -0.40734607 -0.9963069
-0.19203633 2.23726 2.006735 1.1919869 -2.0084608 1.0795541 -1.5586988 1.4878571
-1.2914395 -0.28398407 -2.9419138 -0.4995632 -1.0340985 -0.63795054 -2.8749247 -1.7389592
00000000: e446 2340 faa4 5cbf 2cd1 67be 5e2a 3140
00000010: 7e5c 463f 5e33 aabd fa65 d3bf c364 ac3f
00000020: f527 2340 a42f c63e 049f 2d40 ccd6 2240
00000030: be73 5540 2d04 c63f 31b3 0fbf 9c74 cf3e
00000040: b46d 953f 481b 2b3f 10a6 57be ec4e 93bf
00000050: 38cd d6bd 42d6 233f 56a5 343f d14c 913f
00000060: 3cf4 683f 948a 663f 8cac b33e 0d23 c43f
00000070: 0a21 4a3f 6400 61bf 96bb 433f 601c d5bf
00000080: e066 1e3f d2a1 f1bf d6c5 e4bf 6fa9 4a40
00000090: 4091 51bc 2da1 9dbe 8ca1 a13f 4a14 12bf
000000a0: f13f 563f 2c0b 40bf 93d4 303f 2803 763e
000000b0: 6dbf f4bf 4fc2 e5be 4cdf bebf 874e 97bf
000000c0: 6306 55bf 95cb 8abf 0b33 703f 104c cdbf
000000d0: d65d 8abf 78fb 12be aadd aabf 980c 663e
000000e0: 720d 5d40 2244 c2bf 7a75 9d3f 002d a0bb
000000f0: fdab b73f f555 f33e 2626 92bf 402f 4f3c
00000100: b65d 8b3f 3498 1540 62c3 5d40 e015 1bbf
00000110: 565d 0abe f80c 01bf 4c37 ca3f ec9f fb3f
00000120: 006f 13bd dac8 3cbf e4b4 72bf 0086 d8be
00000130: 44bc 43bf 2af8 ddbe ac7a e53e b267 31bf
00000140: be13 843f b0b7 513e b6d5 a23e 20d7 983d
00000150: 0466 a240 c083 02c0 1455 d3be 841d eebe
00000160: 78bb debf 3458 53bf 32ac b4bf 544a af3e
00000170: 6cca f23e 2f1c 68bf eedc a6bf 2877 3c3f
00000180: 3e1f 1c3f c969 ef3f 2841 5abd 8236 3f40
00000190: 8528 11c0 5474 0ebe 1844 5d3f a6f0 ebbe
000001a0: fd23 9abf dd04 afbf 5404 0e40 f14e cbbf
000001b0: e21b 283f 6e43 703f d85a f93e 0aec ce3f
000001c0: 1a03 f1bf a6a5 fd3f 851a e13f 6f6c a83e
000001d0: b23a 7f3f 7359 48c0 80af f73f ac9c 4ebf
000001e0: 2e35 753f 1014 c43d 9664 b13e a27e ec3e
000001f0: 74dc 4b3e 0827 1c3f 195b 29bf 0b9e 73bf
00000200: 79b4 143f 9cb6 213f 1cf4 3abf 1414 813f
00000210: 9eaa ec3f f7d8 09c0 fa94 f6be dc7b d2bf
00000220: f268 46bf 1e8a 443f 2646 31c0 5346 913f
00000230: 000b c93f 88eb 0b3e 6cf5 85bf 64d1 273e
00000240: 54f1 c33e c3ed 9c3f a2fc 10c0 7299 9cbe
00000250: 6027 e7be 34e8 2dbf 47a2 3bc0 0c91 71bf
00000260: 117c 16bf de33 64bf 62f9 48bf 15cd 0040
00000270: b465 2f3e e0ef f8be 1c10 efbf 2ae6 983f
00000280: 10e5 abbf 3134 eb3f 0bc5 2abf f87d c4bf
00000290: 8813 033e fad6 2340 1a16 a9bf 9092 29c0
000002a0: 7074 ce3f d57a cc3f b125 953f e871 873f
000002b0: 888e 05be 1c49 b33f 0003 a6bc 3e81 1abf
000002c0: 0248 643e 704f bcbd 729c 18c0 b2d6 03c0
000002d0: fa9d 203f 38f0 83bf 800c 2a3d 7a03 6abf
000002e0: b8e6 babf 204f 1240 0ba7 66be 2440 1e3f
000002f0: 6664 c33f 1061 b9be 7dfb 2940 39a9 c73f
00000300: f0f6 e53e f809 a2bf cc49 63be 30a3 16bf
00000310: c649 493f a81d 8640 5e0b 69bf 6de3 833f
00000320: 9c1f 9cbf faa3 1540 2c9b 3dc0 f8be bebe
00000330: eacb 2340 5ed9 9ebf c0c7 583f 2a8f c7bf
00000340: 263c c3bf 9931 79bf 94c8 af3f 43d9 cfbf
00000350: bc73 1f3f 52f8 0ac0 f810 013e d0cc 46be
00000360: aeb4 fdbf 408c 32bf 9a4a 40bf f494 213f
00000370: d4b1 933f 3e21 24c0 2081 d4be f44c 1d3f
00000380: 62c4 ff3d fa7b 3140 891c d43e 5d40 0f40
00000390: b100 a03f 785c d23e 0880 983e 0394 54bf
000003a0: a4f1 733e f676 eb3d 027e a7be c071 81bd
000003b0: f0ea debf 0057 f63e aa8f d0be f80d 7fbf
000003c0: 2ca5 44be 452f 0f40 596e 0040 0793 983f
000003d0: 9f8a 00c0 d42e 8a3f 7183 c7bf 1a72 be3f
000003e0: e44d a5bf 5c66 91be 5148 3cc0 bfc6 ffbe
000003f0: 575d 84bf ba50 23bf c4fe 37c0 3796 debf
