output/weights/before6/before6.npz (npz, 37120 bytes, 1 tensors)

w f4 [1, 18, 512]
0.24355873 -1.0664053 2.6792529 2.255385 -0.25883535 0.62430954 -3.277287 -1.2391312
0.45526922 3.5166821 0.8049473 0.56557024 -1.7213959 0.13291062 1.5087851 -0.3106614
-0.7418044 0.52006304 1.7670219 1.4977634 -0.15322173 -1.6214559 0.8651107 -0.64155257
1.530919 1.8078035 -0.93209594 -0.88888127 1.3430423 -0.7266816 0.78555685 -1.3246664
-1.0892365 -0.3062956 2.7185843 -0.51469874 1.0492122 2.119842 -2.5918489 -0.32180104
-0.9453697 0.46488005 1.7984166 1.566046 -1.2289077 -1.7825133 2.7486014 -0.44834208
0.20782058 0.8779058 -3.5641656 0.07337241 -1.8409752 -0.017860146 -0.80028594 2.828302
-2.1060057 -1.1880533 0.33152783 -0.7113322 1.9706441 -0.8365792 -1.1009996 -0.21457326
-1.310746 -0.78159916 1.2478689 0.35019872 -2.5596297 -0.064133264 0.50653654 -0.13931333
2.6419172 -2.6236458 0.6775531 3.330113 2.3671014 -0.31131962 1.2522415 -0.72923744
1.0584526 -2.6782048 2.1620042 -0.81659865 0.6445961 2.3370717 -0.91639537 2.735158
0.8520642 0.52142024 0.53198177 0.9128287 -0.9506557 2.4501855 1.0581025 -1.3584784
-2.5148106 -1.3122756 2.042805 0.32724613 0.67982316 0.95813805 -0.6062747 0.47716984
0.087200835 0.4646959 -1.2588499 0.024304058 1.986746 1.4025904 1.3585758 -0.7981538
1.3395897 0.58302927 1.3709686 1.8984075 1.8065679 -2.4345403 0.44075406 -0.1547525
0.4227355 0.35314274 0.061236743 -1.6389363 1.1917912 -1.9835362 0.49290964 0.69514954
1.5031735 -0.46741244 -0.40656522 -1.364765 2.2577024 1.6298178 0.009815897 0.35843974
-0.66627675 -0.48119888 -0.14425188 0.59033245 -1.1129298 0.92669255 0.62014014 -0.6967124
-0.53710455 2.672778 -0.24772103 2.4679186 1.790305 0.16050304 -0.23559386 -0.5066667
0.8337863 2.4947739 1.2154495 -2.570495 -0.6628879 1.8703834 0.39743686 0.2702637
0.9050995 -0.9521748 -1.5719475 -1.133326 1.2583897 0.07662327 -1.788296 -1.168018
-0.34073472 0.1612217 0.051609438 3.818426 -0.46860662 -1.151292 1.4349302 0.06611496
0.3057392 2.132218 -1.1257147 -2.1338782 0.4335243 0.57023805 0.9977395 0.5498103
1.5315688 -0.74457765 1.0330535 0.28819084 -0.14215851 -3.1346502 2.047686 -2.2529197
1.4721448 0.9346079 1.710524 0.92735034 -0.14925657 -3.5874176 -0.38762403 -0.22396842
0.40451887 0.77232134 -0.4889174 0.9423119 -1.0260246 2.4855444 -1.0791337 1.5727457
0.9087993 0.088923216 -0.4866366 1.2156304 -0.002399298 1.4188381 1.2995118 -3.2977383
-1.9969089 -2.180351 1.1686469 -3.5884614 2.5420663 2.8079174 0.36298263 -0.48543715
-2.4252794 0.05578543 2.0316117 0.5933666 0.9506519 0.86619943 2.0384657 4.245707
-0.013333248 -1.312244 0.95389855 1.0715346 -1.9138964 1.4219536 0.86610365 1.4367088
0.7748765 -0.4313814 -0.5603663 0.4819492 -0.9084216 -3.0239387 1.3790852 0.7382346
-0.43390337 0.47273502 -0.65585554 1.0022495 0.05514997 1.6084499 -0.6357281 1.3599007
00000000: 7667 793e f87f 88bf e178 2b40 3a58 1040
00000010: 1186 84be c0d2 1f3f 12bf 51c0 da9b 9ebf
00000020: 0c19 e93e 5211 6140 0711 4e3f 36c9 103f
00000030: b356 dcbf b919 083e df1f c13f 030f 9fbe
00000040: e5e6 3dbf da22 053f c62d e23f b6b6 bf3f
00000050: 28e6 1cbe de8b cfbf e577 5d3f ca3c 24bf
00000060: 27f5 c33f 1b66 e73f d79d 6ebf b98d 63bf
00000070: cfe8 ab3f ce07 3abf 411a 493f ab8e a9bf
00000080: 1a6c 8bbf c7d2 9cbe 49fd 2d40 4cc3 03bf
00000090: 964c 863f 7eab 0740 dae0 25c0 1bc3 a4be
000000a0: c003 72bf c204 ee3e 8432 e63f 3274 c83f
000000b0: d94c 9dbf 6529 e4bf 16e9 2f40 188d e5be
000000c0: ebce 543e 6fbe 603f 4a1b 64c0 4644 963d
000000d0: 13a5 ebbf 714f 92bc 8adf 4cbf e602 3540
000000e0: ccc8 06c0 2112 98bf 04be a93e de19 36bf
000000f0: 113e fc3f 0e2a 56bf 8eed 8cbf 18b9 5bbe
00000100: 86c6 a7bf e216 48bf 2bba 9f3f 3f4d b33e
00000110: f9d0 23c0 4d58 83bd 61ac 013f 27a8 0ebe
00000120: 2c15 2940 d0e9 27c0 1f74 2d3f 9220 5540
00000130: 977e 1740 4965 9fbe 7349 a03f 4eaf 3abf
00000140: 607b 873f b567 2bc0 475e 0a40 9c0c 51bf
00000150: 4004 253f 9592 1540 e398 6abf d40c 2f40
00000160: e120 5a3f cc7b 053f f52f 083f 24af 693f
00000170: 2c5e 73bf d7cf 1c40 e76f 873f 9fe2 adbf
00000180: a8f2 20c0 a6f8 a7bf 51bd 0240 ce8c a73e
00000190: e408 2e3f 8948 753f d234 1bbf 9b4f f43e
000001a0: 5a96 b23d 9fec ed3e fe21 a1bf 4e19 c73c
000001b0: b14d fe3f 1588 b33f d0e5 ad3f cf53 4cbf
000001c0: ad77 ab3f 6841 153f e67b af3f 04ff f23f
000001d0: 9e3d e73f 82cf 1bc0 84aa e13e 7077 1ebe
000001e0: ca70 d83e 20cf b43e 61d3 7a3d aac8 d1bf
000001f0: 9d8c 983f 84e4 fdbf a75e fc3e 52f5 313f
00000200: fd67 c03f af50 efbe 5129 d0be 9fb0 aebf
00000210: 327e 1040 df9d d03f dbd2 203c 6a85 b73e
00000220: 1d91 2abf b35f f6be c4b6 13be 0720 173f
00000230: 7c74 8ebf b93b 6d3f 81c1 1e3f be5b 32bf
00000240: af7f 09bf cb0e 2b40 95aa 7dbe 61f2 1d40
00000250: b728 e53f e95a 243e 843f 71be e9b4 01bf
00000260: 0573 553f 60aa 1f40 d993 9b3f fd82 24c0
00000270: 05b3 29bf b968 ef3f d87c cb3e 0160 8a3e
00000280: 9ab4 673f bac1 73bf 9335 c9bf d410 91bf
00000290: ea12 a13f a9ec 9c3d e2e6 e4bf 9d81 95bf
000002a0: c874 aebe 4d17 253e 6b64 533d 1761 7440
000002b0: 35ed efbe 895d 93bf cbab b73f 4867 873d
000002c0: d989 9c3e 4276 0840 6b17 90bf 7691 08c0
000002d0: e6f6 dd3e 1ffb 113f db6b 7f3f 5ec0 0c3f
000002e0: 720a c43f a49c 3ebf 193b 843f c08d 933e
000002f0: 0092 11be 1c9e 48c0 4a0d 0340 d62f 10c0
00000300: 3e6f bc3f 7742 6f3f 73f2 da3f d566 6d3f
00000310: b7d6 18be 4098 65c0 a876 c6be fa57 65be
00000320: 191d cf3e dab6 453f 6253 fabe 5a3b 713f
00000330: c654 83bf 2913 1f40 0e21 8abf bb4f c93f
00000340: 12a7 683f 601d b63d 6f28 f9be c799 9b3f
00000350: 8a3d 1dbb 7d9c b53f 6756 a63f 250e 53c0
00000360: b69a ffbf df8a 0bc0 3996 953f 5aa9 65c0
00000370: 37b1 2240 ebb4 3340 dcd8 b93e 388b f8be
00000380: c737 1bc0 437f 643d ed05 0240 e0e6 173f
00000390: ec5d 733f 3fbf 5d3f 3976 0240 d5dc 8740
000003a0: b273 5abc 9df7 a7bf b232 743f 0c28 893f
000003b0: 8ffa f4bf 9302 b63f f8b8 5d3f 13e6 b73f
000003c0: 4e5e 463f 06de dcbe 2a74 0fbf 0cc2 f63e
000003d0: 518e 68bf 3688 41c0 dd85 b03f f1fc 3c3f
000003e0: 9528 debe 530a f23e 26e6 27bf b649 803f
000003f0: efe4 613d b0e1 cd3f 14bf 22bf 3a11 ae3f
