output/weights/before3/before3.npz (npz, 37120 bytes, 1 tensors)

w f4 [1, 18, 512]
1.0391829 -1.2573566 1.4311568 -0.81953114 0.5816086 1.3657966 -3.7099514 0.19002464
0.26884186 1.4568939 -0.7355623 0.9066023 1.0305755 0.06520609 0.3133183 0.8501145
-1.1725967 0.64390403 0.105726704 1.0025609 -2.4011335 1.509084 -0.8698658 -0.9597825
1.598517 0.50409853 0.05654668 -1.4651631 -2.635148 -0.7652385 0.9331947 1.5024186
-0.10442844 0.42733026 1.0917645 -1.6386551 -0.17786384 -2.033996 0.74777764 1.564215
0.08505726 1.4425012 -0.1805879 0.9883502 1.2051177 -0.4134789 0.8345589 1.497939
-1.1934117 0.93309116 -1.0679657 -0.6145168 1.6922911 1.9526174 -0.4356102 -1.4572793
-0.6861844 -0.061361384 -0.54926527 -1.9707288 -1.0259209 0.8715728 1.2485601 1.0726084
1.3565751 -1.4996582 -0.8417792 1.2235961 -2.1444156 0.0837593 -0.45725957 2.4180121
-2.2434437 1.4173554 0.77157855 0.83101517 -0.590808 1.0532587 0.29953808 -1.8776479
-0.9654768 -2.9283965 0.5839242 0.68676263 -1.5339061 0.59618527 0.6561739 -2.0573957
-2.106256 -0.019772226 1.3631221 -0.052513804 1.1121131 -0.93125904 1.2877374 -1.2083341
-1.5275886 0.2553311 0.022369184 0.36426154 -2.1997619 0.1946376 -0.5208987 -0.238758
1.2338902 0.46393386 -2.587022 -0.5178573 0.7241008 -0.9943056 -1.31421 1.1382699
-0.2769772 1.451611 -0.36141205 0.5011679 3.3959808 -2.8707988 0.21672389 -0.20791665
1.2422823 -0.6905856 -0.46129018 -0.25650507 -1.1606718 -0.5517504 -0.4620063 0.60739785
-1.5937587 -2.7598715 1.8925327 -0.8893724 -0.79940164 1.2387294 1.1185182 1.4956285
-1.2991487 2.1936843 -0.6416483 2.587915 -0.029022533 2.3671176 -0.17966393 -0.24472712
-1.5664469 -0.84638536 -0.14297606 -0.29812545 0.92915714 -1.2371922 -0.26972356 0.016675243
-0.80057746 -0.81484264 -0.5601689 -0.8808171 0.04163257 3.3444822 -0.19799836 -0.6852083
-1.4284502 0.96971637 -1.4005182 -4.3879666 0.83373475 -0.020716703 -2.6659677 -1.4870231
0.6559876 -0.490181 0.19999574 -0.3521989 -0.4377749 0.49542317 -0.51274794 0.2373825
0.016130282 0.59204865 0.2591781 1.547824 1.6766509 1.8321832 -1.4669193 0.36446813
-3.0013824 0.4142151 0.45099315 1.3214128 -1.6627223 -1.0034556 2.055894 1.9541165
-0.095060445 -0.32281858 -0.20295466 -1.3158704 2.3298323 0.5639707 -0.8440579 1.2104206
-0.25224778 -0.7438014 -0.9718265 2.0776548 -1.2513462 2.806268 -0.5538916 0.48849183
0.5220157 1.6006123 1.6068684 0.14403775 1.878391 1.2280185 0.91462153 -1.2592624
2.4384866 0.8525377 -0.1856131 -4.3478837 -0.16833451 -0.07891711 -0.24321859 2.7468882
-1.688855 -0.4178455 -0.01272247 0.4004933 0.44684905 -2.2271726 1.1348429 -0.13158926
-1.5704141 -0.540211 1.4829137 -0.61404777 -0.8108474 -1.0572524 1.0148878 -0.57036155
-1.1299101 -0.008286649 1.5197984 0.7482421 -0.7201416 -1.9342345 0.4991458 -0.25142512
-0.49407846 1.9891433 -1.5347027 1.0087725 0.29701605 1.967387 0.6422003 1.1093799
00000000: f203 853f 10f1 a0bf 2530 b73f cbcc 51bf
00000010: 4de4 143f 6cd2 ae3f d86f 6dc0 d295 423e
00000020: a4a5 893e 807b ba3f d04d 3cbf 1717 683f
00000030: e6e9 833f c58a 853d 426b a03e 1ba1 593f
00000040: a617 96bf e5d6 243f 3e87 d83d ea53 803f
00000050: 2cac 19c0 aa29 c13f 86af 5ebf 4eb4 75bf
00000060: 349c cc3f 9a0c 013f 7e9d 673d 778a bbbf
00000070: 44a6 28c0 ace6 43bf d9e5 6e3f 414f c03f
00000080: 94de d5bd 08cb da3e f0be 8b3f 73bf d1bf
00000090: f021 36be fe2c 02c0 5b6e 3f3f 3238 c83f
000000a0: 8032 ae3d e1a3 b83f 09ec 38be 8504 7d3f
000000b0: 4c41 9a3f 82b3 d3be a7a5 553f 77bc bf3f
000000c0: b7c1 98bf 10df 6e3f 1ab3 88bf f950 1dbf
000000d0: ff9c d83f 5eef f93f 4d08 dfbe 2188 babf
000000e0: c8a9 2fbf 1356 7bbd a69c 0cbf d740 fcbf
000000f0: 6051 83bf 651f 5f3f d1d0 9f3f 3b4b 893f
00000100: 41a4 ad3f cdf4 bfbf d77e 57bf cc9e 9c3f
00000110: 1b3e 09c0 ff89 ab3d ed1d eabe b6c0 1a40
00000120: 9594 0fc0 e76b b53f 2c86 453f 69bd 543f
00000130: 313f 17bf 2ed1 863f 0e5d 993e c456 f0bf
00000140: 7d29 77bf d96a 3bc0 0e7c 153f adcf 2f3f
00000150: 0957 c4bf 999f 183f 03fb 273f 5fac 03c0
00000160: e6cc 06c0 5df9 a1bc c97a ae3f b718 57bd
00000170: b959 8e3f fe66 6ebf 94d4 a43f b1aa 9abf
00000180: 0688 c3bf c2ba 823e 943f b73c 7d80 ba3e
00000190: e6c8 0cc0 144f 473e 9e59 05bf fa7c 74be
000001a0: 1df0 9d3f bd88 ed3e c591 25c0 4c92 04bf
000001b0: ac5e 393f d08a 7ebf 0938 a8bf d4b2 913f
000001c0: f5cf 8dbe 64ce b93f 000b b9be 8a4c 003f
000001d0: c057 5940 2bbb 37c0 deec 5d3e 1ae8 54be
000001e0: 1b03 9f3f 38ca 30bf 3a2e ecbe a254 83be
000001f0: e590 94bf 843f 0dbf 178c ecbe 6d7e 1b3f
00000200: 4900 ccbf bca1 30c0 833e f23f e9ad 63bf
00000210: 96a5 4cbf af8e 9e3f 9b2b 8f3f c170 bf3f
00000220: 814a a6bf 5365 0c40 1043 24bf 66a0 2540
00000230: aac0 edbc db7e 1740 d2f9 37be bf99 7abe
00000240: 5581 c8bf b6ac 58bf 5168 12be e6a3 98be
00000250: 3edd 6d3f 505c 9ebf 3519 8abe 859a 883c
00000260: a5f2 4cbf 8799 50bf 3b67 0fbf 3b7d 61bf
00000270: ea86 2a3d ff0b 5640 15c0 4abe d069 2fbf
00000280: 75d7 b6bf 553f 783f 2e44 b3bf 396a 8cc0
00000290: a46f 553f 13b6 a9bc 379f 2ac0 c656 bebf
000002a0: ceee 273f 01f9 fabe afcb 4c3e 6a53 b4be
000002b0: 0824 e0be 1ba8 fd3e 7343 03bf 6614 733e
000002c0: a723 843c 8090 173f feb2 843e 191f c63f
000002d0: 7f9c d63f fb84 ea3f 03c4 bbbf 919b ba3e
000002e0: a616 40c0 0014 d43e 93e8 e63e 0e24 a93f
000002f0: 16d4 d4bf 3c71 80bf c493 0340 7d20 fa3f
00000300: 0daf c2bd 7a48 a5be 59d3 4fbe 716e a8bf
00000310: f91b 1540 6260 103f 2e14 58bf 10ef 9a3f
00000320: 9f26 81be c569 3ebf 9fc9 78bf 4cf8 0440
00000330: 1d2c a0bf e599 3340 d7cb 0dbf 9a1b fa3e
00000340: d2a2 053f dde0 cc3f ddad cd3f a27e 133e
00000350: 1e6f f03f b62f 9d3f a324 6a3f 832f a1bf
00000360: 2a10 1c40 e93f 5a3f 5c11 3ebe dd21 8bc0
00000370: e25f 2cbe 4b9f a1bd 4b0e 79be 04cd 2f40
00000380: 672c d8bf d8ef d5be e871 50bc 750d cd3e
00000390: 66c9 e43e ff89 0ec0 8842 913f 56bf 06be
000003a0: 5403 c9bf 454b 0abf 1ed0 bd3f 3c32 1dbf
000003b0: b293 4fbf 0c54 87bf d8e7 813f 3703 12bf
000003c0: e5a0 90bf bac4 07bc c188 c23f cb8c 3f3f
000003d0: 335b 38bf ff94 f7bf 0a90 ff3e cbba 80be
000003e0: daf7 fcbe 3f9c fe3f 2371 c4bf 751f 813f
000003f0: 7d12 983e 56d3 fb3f 3d67 243f 2900 8e3f
