output/weights/before2/before2.npz (npz, 37120 bytes, 1 tensors)

w f4 [1, 18, 512]
00000000: e825 0640 3a08 97be facc a53e 3827 b0bf
00000010: 1895 033f d46b d5be 9ab0 b4bd 0cce 6dbf
00000020: 3435 ca3e 1e8e 4fc0 cbfc 373f 011e 083f
00000030: 7e72 8dbf 7d0e 1f3e a41b a8bf 6179 ac3e
00000040: 4756 e83f 1714 8c3e fa27 9b3e 28ed a73f
00000050: b3b6 583e c8be 923f f9bc 1a40 9260 bdbf
00000060: 2956 593f b8c3 d33f 4fc1 b9bf ce1d 4dbe
00000070: 4051 d73f 3489 3c3f a150 1cc0 2016 46bf
00000080: 550a 95bf 06fa c0bf e034 86bf 89ef 0ec0
00000090: 8469 e0be b725 e9bf 58de 82bf c70f 8a3f
000000a0: 55d7 6abf fc77 ab3f e0ce 36be 4ba7 4dbf
000000b0: 00ff 3840 e65d c93d c0c3 33bf e4c2 ddbf
000000c0: 292a 783f 2497 ca3e 1ff3 c9bf 0b15 c93f
000000d0: 9be9 653f 6763 81be c6a7 ef3e 50c4 1fbf
000000e0: 56f5 a33f 4885 02bf a923 193f 39ac 4abf
000000f0: 6511 37be 8cf6 7dbf a6c0 653f 8186 eebe
00000100: f942 fbbe 8131 3f3f 91fb 5e3f 1fe1 fbbe
00000110: 0e2d 00c0 094f f6be aca4 c0be 8c31 bcbf
00000120: 32a9 83bf d4d5 fb3e e14c c23f 16bc c13f
00000130: e76e 423f 35a4 2b40 e8a4 f53e 4e70 dc3c
00000140: 0c67 10be fe73 a3bf 7306 d83f 2242 923e
00000150: 3ac9 2fbf 0e7a 203f 64ed 273f 8914 81bf
00000160: 5b78 a5bf f7d9 3240 6bda d43e e8b2 d23e
00000170: db0b 65be ddaa 9fbf f6ff 6740 d6eb c1bf
00000180: 02dc d7bf ee0f ac3e 98bb 3c3f 8ccf ae3f
00000190: f519 9ebf 5ab8 12bf a6e9 f1bd 64ce 4cbf
000001a0: cefa f4be 28a7 8c3f 9a1a 84bf f875 f0be
000001b0: ab12 47c0 db72 cabe f820 bcbe 733e 5240
000001c0: 68ac 76be 6550 35bf f267 08c0 23fe 913f
000001d0: 2984 89bf da05 743f 9d1d 4dbe d72f 953e
000001e0: 780a 623e ce0c 2e3d a338 f4bd 1a98 853f
000001f0: 2c5e 18be 3027 f43f fc97 a43f de2d 7540
00000200: 02e8 d23e fe75 3dc0 0165 7fbe 73fc 93bc
00000210: 2845 c43f b96d 9b3f e3cc 70bf 9c9f 263f
00000220: 859e 6dbe 9b72 6bbe cf8e 703f c5cb 97be
00000230: 8c71 d4be d830 22c0 df91 c23e a490 1e40
00000240: ee88 6b3f ba62 4e3e 25ba 50bf 2909 b83e
00000250: 339e 2040 cf93 273f 6b9a 2cbf 1ae6 eabe
00000260: 7ac8 e93f 8694 513f e702 f83f 03d3 d63f
00000270: ea3a ba3f 7863 873f b64b 053d ad65 32bf
00000280: 5850 17bf a17b d93f 57c9 f93f de56 d0bf
00000290: 1c66 3d40 2ce2 f13f 17f9 bc3e b9fa 15c0
000002a0: e109 303f ce82 45be db02 3d3f 5951 443f
000002b0: 99c9 1540 d3a6 c53f 7047 b33f bbc8 1240
000002c0: ebbd 1c3f a469 9c3f 02ab 25bf 3aa2 96bd
000002d0: f205 92be 305d a23f 8223 3d40 3ded fe3f
000002e0: 58f4 27bf bd91 f03e 6799 22be 1da9 be3f
000002f0: b5d2 473e 03e9 f73e 84f4 d7bf 0da5 95bd
00000300: 3eca bcbf a17a 6cbe ac6e 1bc0 4347 4ac0
00000310: b940 ca3d 5021 e0bd da64 373f 24b3 7b3f
00000320: ad67 203e f0a1 683f 4f00 a2bd 6a96 f0be
00000330: 83b2 f0bf 46da 1040 e03e d53e ef95 413f
00000340: 90f2 ad3f cad6 4a3f 4b20 a0bf 3413 70bf
00000350: f43f f4bd 2f45 ccbe e3d5 bd3f 4305 a0bf
00000360: 2f2a ea3f ce6c f13f f223 d93f 1366 9dbf
00000370: bc95 813e 44f3 803f 2db9 0340 cac0 56be
00000380: 1838 f1bf 04be 85bf ab2f 79bf f943 6ebf
00000390: 1136 eebf 1b33 89be 3174 f1be f0e2 0cbf
000003a0: 25b4 0440 5755 81c0 1ff8 653f 7de8 46be
000003b0: 0936 52be 6f38 de3c 57ac 373f b2d8 9b3d
000003c0: fd38 0040 b5b9 0f3e 3118 2c3f 20ba 263f
000003d0: e3fd 0bc0 56f7 f43d 6142 8b3f de44 f8be
000003e0: c9ea 8f3f afe7 1e3f 7fc8 8e3e bf55 323f
000003f0: 6cf8 3240 75cc d9be 5730 4abe a9fc ae3f
2.0960636 -0.29498464 0.32382947 -1.3761969 0.51399374 -0.4168383 -0.088227466 -0.9289253
0.39493716 -3.2430491 0.71870106 0.5317078 -1.1050565 0.1553287 -1.3133435 0.33686355
1.815133 0.27359077 0.30303937 1.3119249 0.21163444 1.1464472 2.417784 -1.4795096
0.84897095 1.6544104 -1.4512118 -0.20030901 1.682167 0.73646855 -2.4424212 -0.7737751
-1.1643778 -1.5076301 -1.0484886 -2.23337 -0.43830502 -1.8214635 -1.0224104 1.0786065
-0.9173482 1.3395991 -0.17852354 -0.80333394 2.890564 0.09832363 -0.70220566 -1.7325101
0.9693933 0.39568436 -1.577732 1.5709547 0.8980958 -0.2527115 0.46807688 -0.62408924
1.2809246 -0.5098462 0.5982004 -0.7916904 -0.17877729 -0.99204326 0.89747083 -0.46586993
-0.49074534 0.7468491 0.8710261 -0.4919519 -2.00275 -0.48107174 -0.37625635 -1.470262
-1.0286009 0.49186575 1.5179712 1.5135524 0.75950474 2.6818974 0.47977376 0.02690902
-0.1410181 -1.2769773 1.6876968 0.2856608 -0.6866642 0.6268624 0.65596604 -1.0084392
-1.2927355 2.7945535 0.4157289 0.4115212 -0.22367804 -1.2474018 3.6249976 -1.5150096
-1.6864016 0.33605903 0.73723745 1.3657088 -1.2351671 -0.5731255 -0.11812143 -0.8000243
-0.478476 1.0988512 -1.0320618 -0.46965003 -3.1105144 -0.39540753 -0.36743903 3.2850616
-0.24089205 -0.708258 -2.1313443 1.1405681 -1.0743457 0.9532143 -0.20030828 0.2913806
0.22074306 0.04249268 -0.11924865 1.0437043 -0.14879674 1.9074459 1.2858882 3.8309245
0.41192633 -2.9603267 -0.24940874 -0.018064713 1.5333605 1.214286 -0.9406263 0.65087295
-0.23205002 -0.22992937 0.9396791 -0.2964765 -0.4149288 -2.5342312 0.38001916 2.4775782
0.92005813 0.20154849 -0.81534034 0.3594449 2.5096557 0.65459913 -0.67423123 -0.4587868
1.8264306 0.81867254 1.9375886 1.6783146 1.4549229 1.057723 0.032542907 -0.69686395
-0.5910697 1.6990854 1.9514569 -1.627651 2.9593573 1.8897147 0.3690879 -2.343428
0.68765074 -0.1928818 0.7383248 0.76686627 2.3404295 1.5441536 1.4006176 2.2935016
0.6122729 1.2219739 -0.6471406 -0.07355161 -0.2852016 1.2684689 2.9552922 1.9916149
-0.65607214 0.4698619 -0.15878831 1.4895359 0.19513972 0.4841996 -1.6871495 -0.073068716
-1.474922 -0.23093654 -2.4286299 -3.1605995 0.09875626 -0.10943854 0.7163826 0.9832022
0.15664549 0.90872097 -0.07910215 -0.46989757 -1.8804477 2.2633224 0.41649532 0.75619406
1.3589649 0.7923399 -1.2509855 -0.937793 -0.119262606 -0.39896533 1.4830898 -1.2501606
1.8294123 1.886133 1.6964095 -1.2296776 0.2530955 1.0074239 2.0581772 -0.2097198
-1.8845243 -1.0448613 -0.9733836 -0.9307247 -1.861025 -0.26796803 -0.4715896 -0.5503378
2.0734951 -4.0416675 0.8983173 -0.19424625 -0.20528425 0.027126519 0.71747345 0.07609691
2.0034783 0.14035685 0.67224413 0.65127754 -2.187371 0.11961238 1.0879632 -0.48490041
1.1243526 0.6207227 0.2788734 0.6966209 2.7964125 -0.425388 -0.19745003 1.3670856
